checkpoint/champion_model.pth (torch, 259473 bytes, 15 tensors)

lstm_recent.weight_ih_l0 f4 [256, 1]
000000 d8 fb cd 3c fa 24 9f 3d 69 0b 32 3e bb 5d 37 3f
       0.025144503 0.077707246 0.17387165 0.71627396
000010 3f db 74 be f3 f5 35 3f a7 83 a9 bd a0 ad 69 3f
       -0.23911761 0.71078414 -0.08277064 0.91280556
000020 8a 41 d2 3d 5c a1 d8 bc 35 24 76 3c 20 3d df be
       0.10266407 -0.02644413 0.015023281 -0.43601322
000030 62 de 74 bd df 4f 5b 3e 55 5f 17 3d 2d 01 09 ba
       -0.059782393 0.21417187 0.03695615 -0.00052263105
000040 58 61 3f bd de 1f 60 be b7 49 01 bf b7 65 ac 3e
       -0.046723694 -0.21887156 -0.50503105 0.33671352
000050 0c 9e ec bd bd f3 6d bd 52 ee 16 be 94 b0 1c 3f
       -0.115535825 -0.058093775 -0.1473935 0.61206937
000060 44 ea ae be 59 9d 3b be 20 28 4b bd 36 54 c6 3c
       -0.34163105 -0.18321742 -0.049598813 0.024210077
000070 be 32 49 bd 0e e6 6f be a3 76 90 3d 00 35 2c be
       -0.049120657 -0.23427603 0.07053878 -0.16817093
000080 ef 4d e3 3d 0d d9 4f 3d b2 d8 08 be 83 08 7c 3d
       0.11098849 0.050744105 -0.13363913 0.061531555
000090 77 2e 8b bd 7f e1 c1 be 8c ba 93 be ed 6e a8 3d
       -0.06795972 -0.37867352 -0.2885326 0.082242824
0000a0 03 ea 1f 3f 8e 32 b5 bd 33 78 d1 3e 09 79 87 3d
       0.6246645 -0.08847533 0.40912017 0.066148825
0000b0 f0 f2 b6 bc e3 5d b4 3e a3 45 25 bc 66 a3 46 37
       -0.022332639 0.3522788 -0.0100874035 1.1839764e-05
0000c0 cc 57 d2 bc 5d 11 33 be bd 7d 72 bf c7 9e 7d 3f
       -0.02567663 -0.17487092 -0.9472311 0.990704
0000d0 65 cf 01 be 7e 6a 97 3e 40 ab 28 3f 64 d7 d3 3d
       -0.12676771 0.29573435 0.65886307 0.10343817
0000e0 2d c7 37 3e c7 ff 8a bd eb fe f3 bc f2 4e 9d be
       0.17947073 -0.06787067 -0.02978464 -0.30724293
0000f0 e0 9c 1f 3d 30 65 ef bd f0 2a 0a be f6 69 21 be
       0.038967967 -0.11689222 -0.13492942 -0.15763077
000100 d4 db b1 bc d6 e1 1c bd c4 72 42 3d 48 3f 24 3e
       -0.021711268 -0.03830131 0.04747273 0.16039765
000110 47 65 15 be 16 39 cc 3d 3e 0a 86 3d d6 39 83 be
       -0.14589415 0.09971826 0.06544922 -0.25630063
000120 4b b5 19 3e 6b 91 bd bd b5 0e 20 be d1 5f ab be
       0.15010564 -0.09256252 -0.1563061 -0.3347154
000130 78 49 ed bd d4 58 1d 3d a2 d9 74 3c de 58 13 3e
       -0.11586279 0.03841479 0.014944466 0.14389369
000140 90 c2 b8 bd 65 fd 1b be 2e 65 b7 be 04 56 71 3d
       -0.09021485 -0.15233381 -0.3581938 0.05891992
000150 18 86 b2 3c 26 8b df bd b1 70 d7 3c 7a 11 98 3d
       0.021792457 -0.10915212 0.026298853 0.074252084
000160 38 88 2e be 65 36 0b be fc b3 04 be 1e 0e 60 bd
       -0.17044151 -0.13594969 -0.12959284 -0.054700963
000170 cd 53 a5 3d 1e 9d 0c 3d 45 bc d7 bd 4c d8 2f be
       0.08072624 0.034329526 -0.105339564 -0.17172354
000180 9b 6f ec 3d b3 a7 12 bd b3 bd 89 bd 60 db 66 be
       0.115447246 -0.03580446 -0.067256354 -0.22544622
000190 47 b2 09 be 51 bc 62 be f1 66 28 be dd 94 24 be
       -0.13446914 -0.2214215 -0.16445519 -0.16072412
0001a0 13 89 48 3d b6 05 29 bd 47 d6 e1 bc 75 d5 b3 bd
       0.04895885 -0.041265212 -0.027567996 -0.08780948
0001b0 a1 ff 4b bb 48 b4 45 3c 13 0c a7 3d 86 7e ec 3c
       -0.0031127708 0.012066908 0.081566 0.028868925
0001c0 57 b6 87 3c 03 61 7a be 96 9c 4c bf 5f 20 dc bc
       0.016566439 -0.2445107 -0.7992643 -0.026870904
0001d0 0c 7b e3 3c d1 ed 99 3d 5c 71 f9 3b 33 ae 05 3b
       0.027768634 0.07516063 0.0076123904 0.002039802
0001e0 9f c9 ad bc 3f a8 fb bc d3 2e 70 bc 8c d3 8d be
       -0.021214304 -0.030719874 -0.014659601 -0.2770046
0001f0 96 52 2c bd 0d 24 f2 3c a3 00 6f be bd b6 22 be
       -0.042070948 0.029558206 -0.23340087 -0.15890022
000200 2b 7b 3b 3e 13 5a 85 bb 7f 1d 62 3e a7 6c b0 3e
       0.18308704 -0.0040695756 0.22081564 0.34457895
000210 f7 d6 75 be 6d 3b de 3e f7 2b 1f bd 13 49 a7 be
       -0.24007784 0.43404713 -0.038860288 -0.3267294
000220 d1 04 49 be 49 33 84 be 3e c9 25 3e 36 96 8f bd
       -0.19630744 -0.25820377 0.16190049 -0.07011072
000230 8c 75 aa 3c f6 94 52 be 32 04 ed 3d b6 81 22 be
       0.020808004 -0.20564637 0.11573066 -0.15869793
000240 9a 6d 02 bb 03 f8 df 3d a8 2a 3f 3e f5 8f 96 3e
       -0.0019901753 0.10935976 0.18668616 0.29406705
000250 6b 31 46 3e d0 75 e2 bd e1 64 e5 bc 7b df cb be
       0.19354789 -0.11057627 -0.028002204 -0.3981894
000260 aa 08 59 bd 54 ed 4b be 47 c5 2e 3e 34 91 72 be
       -0.05298678 -0.19914752 0.17067443 -0.23688203
000270 de 7a 04 3e a0 1b bb 3d 95 df 03 3e 82 2a 5a be
       0.12937495 0.091361284 0.12878259 -0.21305278
000280 4e 8c 57 3e f1 20 2f 3d dc c3 b9 3d db 69 34 be
       0.21049616 0.042756025 0.0907056 -0.17618506
000290 4c 72 9e 3d 2d 5c ff 3d 28 56 15 be 47 38 80 3e
       0.07736644 0.12468753 -0.14583647 0.25042936
0002a0 0a 69 96 3e 94 c5 d9 bd 14 38 9a be 56 77 9a bc
       0.29377013 -0.10633388 -0.3012091 -0.018855732
0002b0 b7 a4 70 3c a8 f9 b4 be 3b 86 20 be e3 4c 28 be
       0.014687709 -0.35346723 -0.15676205 -0.1643558
0002c0 21 f6 3f be ec 98 09 3e 1a ee c1 3e 0e 09 f4 be
       -0.18746234 0.13437241 0.3787697 -0.47663158
0002d0 9c 85 b3 3d a6 4d 6d 3e 67 36 dd 3e 36 25 25 be
       0.08765718 0.23174152 0.43205568 -0.16127476
0002e0 4b 0f 0e 3e 3a d8 3b 3e b9 d2 79 3d 34 53 2d be
       0.13873021 0.18344203 0.060991976 -0.1692627
0002f0 02 35 e3 bd 67 92 f0 3d 47 8c 1e be 29 3c 36 bd
       -0.11094095 0.11746674 -0.15483199 -0.044490967
000300 31 e8 75 bb c3 88 bf 3d cd a0 5a 3e 1c f9 38 3f
       -0.003752243 0.09352257 0.21350403 0.7225511
000310 a0 22 52 be 4e cb 28 3f 29 9a de bb 15 be 54 3f
       -0.20521021 0.6593522 -0.0067932797 0.8310254
000320 45 73 84 bd fc 7c 52 3d 4f e5 6b bd 65 23 dc be
       -0.064672984 0.051388726 -0.057591733 -0.42995754
000330 2e e2 f3 bd 01 90 1a 3e f3 e4 88 bd 4c fd 87 bd
       -0.11908375 0.15093996 -0.066842936 -0.066401094
000340 a8 49 4b be 99 6e 61 be 18 b8 e2 be ca 57 b7 3e
       -0.19852316 -0.22014846 -0.44281077 0.35809165
000350 14 9a 28 be d2 98 00 be b6 a1 89 bd 0d ef 29 3f
       -0.16465026 -0.12558296 -0.06720297 0.6638039
000360 84 39 76 be ec ce 66 be f8 c7 93 bc 2c 27 c6 3d
       -0.24045378 -0.22539872 -0.018039688 0.0967544
000370 c0 8a c3 bd 8f 18 6b 3c a2 55 93 bd e3 8f 86 bd
       -0.09547949 0.014349117 -0.071940675 -0.06570413
000380 de 65 cb bd 30 f8 f2 3d 88 1b 36 3c 22 67 c7 bc
       -0.09931539 0.11863744 0.011114962 -0.02434117
000390 6d 97 6f be 17 73 2a bf b9 0c d6 be 74 85 5f 3e
       -0.23397608 -0.66581863 -0.41806582 0.21828252
0003a0 50 7f 43 3f a7 c2 02 3e 0e db d8 3e b2 f4 9d bd
       0.7636614 0.12769566 0.42354625 -0.077126876
0003b0 f9 24 ad bc af 68 9a 3e 3e b7 5f be b7 ed 91 bc
       -0.021135794 0.30157992 -0.21847245 -0.017813547
0003c0 53 6b de bc c5 33 71 be 86 ae 7a bf 70 88 81 3f
       -0.027150786 -0.23554905 -0.9792255 1.0119762
0003d0 1b 05 3a bd f4 83 12 3e 7c 6e 03 3f 44 ff f0 3d
       -0.045415025 0.14308149 0.5134046 0.11767438
0003e0 5f ba 4a 3e 07 be 41 3d 4e ea 2e be c4 4c d1 be
       0.19797657 0.047300365 -0.17081568 -0.4087888
0003f0 65 04 8d 3b 88 63 12 3d e1 e9 56 be 75 54 90 be
       0.0043035024 0.03573945 -0.20987655 -0.28189436

lstm_recent.weight_hh_l0 f4 [256, 64]
000000 f7 bd 15 bd eb 7d 98 3c 64 47 95 3e a8 67 c9 3e
       -0.036558118 0.01861473 0.2915603 0.39336896
000010 ce 4f 9d 3e 6d 26 21 be 20 82 dc 3d f7 fe 05 bf
       0.3072495 -0.15737315 0.10767007 -0.5234217
000020 5d 99 4a 3e 80 55 64 3e fe 7e 5d bd 8f 80 75 3e
       0.19785066 0.2229824 -0.054076187 0.23974822
000030 f3 96 df bd cb 2d 0c bd 12 fb 37 3d c5 2d 19 bd
       -0.10917463 -0.03422336 0.044917174 -0.037397165
000040 0c 12 30 bd 7b b0 0e bc ea bf 9d bd 42 8b c3 bd
       -0.04298596 -0.008709068 -0.0770262 -0.09548046
000050 29 00 9d be f4 c7 48 be 78 bc 06 3e 60 dc be bd
       -0.30664185 -0.19607526 0.13157833 -0.09319377
000060 79 39 77 3d fa d6 bb 3d bf 2a 25 3e 07 69 36 3d
       0.060357545 0.09171863 0.16129588 0.044533756
000070 e5 f2 70 bd 91 dc 45 3d f1 72 40 be 1c 0d fd 3d
       -0.058825392 0.04830605 -0.18793847 0.12356016
000080 c1 7a 2e bd 26 40 18 3d f6 f8 20 be 4e 1b 76 bd
       -0.042597536 0.03717055 -0.15719971 -0.060084634
000090 c8 c9 39 3e b2 b9 b6 be 22 6d 04 3c 53 7a b3 3c
       0.1814338 -0.3568855 0.00808266 0.021908915
0000a0 67 cb 3b 3e 9d bb ee 3b bd 0a 24 be 89 4b 25 be
       0.1833931 0.007285549 -0.16019721 -0.16142096
0000b0 9c e8 7a bd 52 1a 13 be 8a 66 22 be f3 4e 61 be
       -0.06125699 -0.14365509 -0.15859428 -0.22002773
0000c0 d8 95 20 3d cb c1 92 3e 99 c8 8e be 76 46 35 bf
       0.039205402 0.28663477 -0.2788742 -0.7081064
0000d0 ed ba e3 bd 79 0f cd bd fa c7 47 3e b3 15 5c 3b
       -0.11119638 -0.10012717 0.19509879 0.003358227
0000e0 7a 73 39 be d0 cf c3 bd 73 6b 38 bc 86 3f 89 bd
       -0.18110457 -0.095611215 -0.011256087 -0.06701569
0000f0 f9 92 6f 3e 79 40 fa 3d 80 ee 0f be 22 c3 3c 3e
       0.2339591 0.122193284 -0.14055824 0.18433812
000100 3f 11 0c be ee 33 4d bd 43 94 86 3c 76 13 93 bd
       -0.13678454 -0.050098352 0.016428119 -0.07181446
000110 e5 2f 94 bd e7 a1 d0 bd 4a 1f d6 3b ea 4b 4a be
       -0.07235698 -0.101871304 0.0065344917 -0.19755521
000120 d3 a1 97 bd 37 12 84 ba 65 a0 b9 3d ee 09 ea 3c
       -0.074039124 -0.0010076229 0.09063796 0.028569188
000130 71 a7 87 bc 38 90 0b bd 66 85 74 bd 4b ad eb bb
       -0.016559334 -0.034073085 -0.05969753 -0.007192289
000140 8d d9 f1 bd e7 a8 02 3e f9 3a c1 bd bb 7a 19 bd
       -0.11809073 0.12759744 -0.09435076 -0.03747056
000150 9b 18 a6 bc d2 4d 60 bc b1 da 3e bc 8c 52 c9 bd
       -0.020275405 -0.013690429 -0.01164882 -0.09830198
000160 f9 68 08 be 53 23 bc bd 7e d8 3e 3e 97 35 6d bc
       -0.13321294 -0.09186425 0.18637273 -0.014478109
000170 cd 84 72 be de 92 d5 bc 21 f5 0e bd 4c f3 09 3e
       -0.23683472 -0.026071008 -0.034901742 0.13471717
000180 0e 2f 4c 3d 4b e5 01 3e 00 8d 32 be d8 7a 2b be
       0.049849562 0.12685125 -0.174366 -0.1674608
000190 53 db 66 3d 78 67 c1 bd 09 70 be bd 83 56 2c 3d
       0.056361508 -0.09443563 -0.09298713 0.04207469
0001a0 89 98 18 be 17 ee 81 3d 12 a4 b7 3c b5 64 ad bd
       -0.14901938 0.0634424 0.022417102 -0.08466474
0001b0 d8 94 c2 3d 59 08 39 3e da d9 bd 3c ab c0 18 bd
       0.09501046 0.1806959 0.023175169 -0.037293117
0001c0 d4 16 c7 bd a9 f1 8f 3d 90 d0 bd 3d ee 05 43 3e
       -0.09721151 0.07028515 0.09268296 0.19045231
0001d0 ae a5 2b be 75 80 d8 bc 1e d3 df bd c7 12 ad bd
       -0.1676242 -0.02642844 -0.10928939 -0.08450847
0001e0 4e 58 89 bd 50 f1 9e 3d 9a 69 38 3d e2 61 5b be
       -0.06706296 0.077608705 0.045022584 -0.21424058
0001f0 c4 e7 20 3e f7 85 dd bd 30 e3 a0 3c 2f fc 27 3e
       0.15713412 -0.108165674 0.019639581 0.16404794
000200 51 fb 97 3e 60 d6 10 3e 45 86 a0 bd bf 47 5b be
       0.29683927 0.14144278 -0.0783811 -0.21414088
000210 de 8e 15 be 8c 34 ff 3d 9c 31 08 be 03 47 b6 3e
       -0.14605281 0.124611944 -0.13300174 0.35601053
000220 0a 49 8f bd aa a2 23 be 2d 29 51 3e 29 3b 6a be
       -0.06996353 -0.1598002 0.20425864 -0.2287413
000230 9e 3f 64 bd 65 11 d3 bc 00 8f ca 3d f5 7e 4a be
       -0.055724733 -0.02576513 0.09890556 -0.19774993
000240 c2 4e 52 3d a4 83 55 3e af 85 0e 3e e4 3c 6c 3e
       0.05134464 0.20850998 0.13918184 0.23070103
000250 25 3b 3d 3e a3 21 d3 bd 2c 82 38 be 06 bc 98 be
       0.18479593 -0.1030915 -0.18018407 -0.2983095
000260 08 ce 1a be 9e f6 45 be 8c c3 79 be b8 7a 49 be
       -0.15117657 -0.19332358 -0.24391001 -0.1967572
000270 5c 65 28 3e f2 bd 1e 3d 31 c7 85 3e 96 99 66 be
       0.16444916 0.038755365 0.26128533 -0.22519526
000280 dc 6a 55 3e 42 b6 3a 3d 90 e4 0d 3e 47 c3 87 bd
       0.20841545 0.04558397 0.13856721 -0.06629043
000290 9d f6 7e be e0 d6 1a 3d 99 3b 0c be 72 a1 26 3e
       -0.24898763 0.037802577 -0.1369461 0.16272524
0002a0 4e d4 9e bd 05 c8 36 3c e6 8c f6 bd a7 76 f1 3d
       -0.07755338 0.011156087 -0.12038593 0.11790209
0002b0 2d 89 cc bd 73 aa 21 bd 6c b3 a6 3d 2b d0 77 3c
       -0.09987102 -0.039469194 0.08139691 0.015125315
0002c0 42 9e 86 be 99 24 2e be da 98 32 3d ae 09 bd 3e
       -0.26292616 -0.17006148 0.0436028 0.36921448
0002d0 a5 dd 8f 3d 30 86 48 3e 5a c9 3d 3e fc c5 3c 3c
       0.07024697 0.19582438 0.18533841 0.0115218125
0002e0 d6 38 6b bc f9 31 6d 3e fd 11 b4 3d 38 91 e2 3d
       -0.014356812 0.23163594 0.087924935 0.110628545
0002f0 34 2e 23 be bb 32 da bc 99 ec 7a bd 63 52 66 bd
       -0.15935594 -0.026635518 -0.061260793 -0.056230914
000300 eb 76 e2 bc 0a e5 a7 3d 3f 60 2c 3e 0c f6 6f 3e
       -0.027644595 0.081979826 0.1683359 0.23433703
000310 15 0b 84 bd c9 af 8a 3e 48 01 c6 be 77 31 e3 3e
       -0.06447426 0.27087238 -0.38672853 0.44373676
000320 8a 5c 74 be a3 ca 55 3d 3d 70 9e be 1c 04 00 3e
       -0.23863426 0.052195203 -0.30945006 0.12501568
000330 cb 53 e1 be 7f ab 8d be f1 7c 07 3f 89 99 09 bf
       -0.4400924 -0.27669904 0.5292502 -0.537499
000340 07 a2 06 3f ce 07 de be 09 50 d7 be 1c 1e 97 3d
       0.52590984 -0.4336533 -0.4205325 0.0737879
000350 1f f7 0b 3e 02 97 06 be b1 da a3 be eb 5c 72 bc
       0.13668488 -0.13143542 -0.32002786 -0.014792661
000360 0e 0a f2 3e 7b 77 80 3e f9 49 11 3d 2f f7 c6 bd
       0.47273296 0.25091156 0.035470936 -0.09715115
000370 14 e6 0e 3f 28 9a 97 3e 59 4b 7b 3d 56 23 f6 3d
       0.5581982 0.296098 0.061351154 0.120184585
000380 43 6f cf 3d 7d 9d 9b be 6e bf 53 3e 13 27 0e 3f
       0.10128643 -0.30393592 0.20678493 0.5552837
000390 5d df 24 3e 4e e5 a6 be 78 ab e6 3e 18 bf 2f 3e
       0.16100831 -0.3259682 0.45052695 0.1716274
0003a0 b8 23 ac 3e cd dc d0 be 9d 0f b1 bd c8 29 f3 3e
       0.33621 -0.40793458 -0.08645556 0.47492814
0003b0 00 16 c9 3e ee 28 56 be ee ef 8c 3e a2 b4 af be
       0.39274597 -0.20914051 0.27526802 -0.343175
0003c0 ba 38 ba 3c d6 f1 9d be 8a 88 05 bf c5 22 6f be
       0.022732127 -0.3084857 -0.5216147 -0.23353107
0003d0 12 e5 e0 3e c9 28 24 3e b8 47 11 bf 1a 22 4b be
       0.43924767 0.16031183 -0.5675006 -0.19837227
0003e0 4d e6 fa 3e 44 80 74 3e 70 32 66 3e 7c 2b d4 3e
       0.4900383 0.23877054 0.22480178 0.41439426
0003f0 9a b6 a2 be 44 a1 b9 3e 33 6e a1 be 40 5d f6 be
       -0.3177994 0.36255848 -0.31529388 -0.4811802

lstm_recent.bias_ih_l0 f4 [256]
000000 4a 9e 10 3d 88 16 2a be ed d2 06 bb b4 e8 fe 3e
       0.035307206 -0.16610157 -0.00205725 0.49786913
000010 0f 64 c4 3d 8e 45 19 3f bf a9 99 3d c8 ef 5c 3f
       0.09589397 0.5987176 0.075030796 0.8630338
000020 f5 b7 c1 bc 51 17 26 3e 56 b0 89 bd ec 8d 45 be
       -0.023647288 0.16219832 -0.067230865 -0.1929242
000030 ca 05 6f be ac 45 3b bd 18 b4 23 be 29 73 1c be
       -0.23342052 -0.04572074 -0.15986669 -0.15278305
000040 e8 20 78 be 39 b0 07 be 27 5e 15 3d c1 5d b0 3d
       -0.24231303 -0.13250817 0.036466744 0.08611632
000050 15 d4 81 3d bd 6c fc bd cc 00 21 be a6 58 19 3f
       0.063392796 -0.12325428 -0.1572296 0.5990089
000060 84 0f ea bd 2d 01 06 bc 2c 3f 53 3d be 4e 21 3e
       -0.114287406 -0.008178991 0.051573917 0.15752694
000070 ae 13 3c be 2b a7 ee bc 34 1f 12 bd 29 92 39 3e
       -0.18366882 -0.029132446 -0.03567429 0.18122162
000080 0b b8 14 3e 37 5d 93 bc ef 6b 83 bd c9 40 89 3d
       0.14523332 -0.017988784 -0.06417071 0.0670181
000090 8d 47 f3 3c 1e 65 86 bc 8f 48 72 bd 73 4a 57 3d
       0.029697204 -0.016405638 -0.05915123 0.052561235
0000a0 ed 63 df 3e 16 ac 30 bd c1 97 d6 3e 5d ec d3 3d
       0.43630925 -0.043132864 0.41912654 0.10347817
0000b0 be 9c 1c be 30 2c c2 3e 6e d2 1e bd 2a b2 69 be
       -0.15294167 0.37924337 -0.0387749 -0.2282187
0000c0 7f ad a1 3d af a1 b9 bd ef a6 a0 3d b0 e7 7e 3f
       0.0789442 -0.09064042 0.0784434 0.9957228
0000d0 94 df 4e bd 72 d8 bf 3d ff 48 52 3f 07 ab 99 bd
       -0.05050619 0.093674555 0.82142633 -0.07503324
0000e0 32 f0 59 3d 3f 68 40 be 85 0d 20 be ab 39 5a 3d
       0.053207584 -0.18789767 -0.15630157 0.053277653
0000f0 23 e1 48 bc c0 52 38 be 3f be 8d 3b f5 2c ed bd
       -0.012260708 -0.18000317 0.0043256576 -0.115808405
000100 9a 9d 00 bd 06 7b dc bd f3 38 0e be 93 e4 12 be
       -0.0314003 -0.10765652 -0.13888912 -0.14345007
000110 5f 26 76 3d ba 0b 27 bd 7f de 1b be fe 73 90 be
       0.060095187 -0.040782668 -0.15221594 -0.28213495
000120 1f a6 f9 bd d1 e1 3b bd 10 29 aa 3d 80 67 26 3d
       -0.12189888 -0.045869652 0.08308613 0.04062605
000130 02 99 0c be ae 82 4a be 41 24 a0 bd 41 58 94 3d
       -0.13730243 -0.19776413 -0.07819415 0.072433956
000140 4e 0e 3f be 2d d4 bc 3d 19 4b 1b 3e 8a b7 8e bd
       -0.186578 0.09220157 0.15165366 -0.06968601
000150 7a 47 f2 3d 6c 80 76 bd 5e e0 6a be 72 86 06 be
       0.11830039 -0.060181066 -0.22937152 -0.13137224
000160 c1 d8 bf bd c4 e8 9a bd 7b ef a1 bd 09 91 7a bd
       -0.093675144 -0.07563928 -0.079070054 -0.061173473
000170 33 f5 80 bd 59 28 0d bd 27 3b 95 bd ac 99 a5 3d
       -0.06296768 -0.034462307 -0.07286673 0.08085951
000180 da e6 1f bb 4b 2c 8e 3d ea 6d 95 3d b3 37 50 be
       -0.0024399073 0.06942042 0.07296355 -0.20333748
000190 60 d4 2c bd e1 7d 5c 3e 12 74 ea 3c 24 35 27 be
       -0.042194724 0.21532394 0.0286198 -0.16328865
0001a0 ad 6b f1 bd dc dd 92 bd cd 26 0f 3d 12 78 b0 3d
       -0.11788116 -0.071712226 0.034949113 0.086166516
0001b0 5d a8 bd 3d 65 2e 95 bd 63 1f 4a bd 80 a8 5a be
       0.09260628 -0.0728424 -0.04934634 -0.2135334
0001c0 e8 44 9a 3d b2 7a 35 be 80 f4 a4 bd c5 ff 65 be
       0.07532674 -0.17722586 -0.08054447 -0.2246085
0001d0 d9 44 bc bd 5a bf c7 bd 45 8f a9 bc ce 34 13 be
       -0.09192819 -0.09753294 -0.020698199 -0.14375612
0001e0 c1 e3 9a bd 86 c0 a3 3d de 05 87 bc 1d 2a 09 be
       -0.07562972 0.07995705 -0.01648229 -0.13394971
0001f0 34 f9 42 3d ed 90 11 be 40 a3 02 be 7c 50 a2 bd
       0.04760094 -0.14215441 -0.12757587 -0.079255074
000200 12 58 e6 bd a6 a1 ac 3d 5a b8 34 3d 0e 3d 24 3c
       -0.11247267 0.084292695 0.044121124 0.010024322
000210 fd b8 44 3d f5 55 30 3d da f3 a1 bc 59 2f 06 3d
       0.04802798 0.043050725 -0.019769598 0.032759998
000220 80 b3 91 bc d9 8b b1 3b fc 24 c3 bd ed d2 18 3d
       -0.017785788 0.0054182825 -0.095285386 0.03731053
000230 6e ae c1 bc 5d 9f 4e 3c 74 a9 11 3d 6b 7c e8 bc
       -0.023642745 0.012611237 0.035561994 -0.02837964
000240 e5 f9 84 bc 2a 15 a2 bd 74 65 a9 bd 76 1c 61 3d
       -0.01623244 -0.07914193 -0.08271304 0.054958783
000250 2f 50 41 3d 6c 47 20 3d e1 5d f8 bb bf 4b f0 3d
       0.04719561 0.039130613 -0.0075795506 0.117331974
000260 9c db 99 3d 64 5a e2 3c b2 c9 cc bd 49 37 06 3d
       0.0751259 0.027630992 -0.09999408 0.032767568
000270 06 e9 69 3b 5a 7b 30 bc b7 1b b2 3d e8 9e fe 3d
       0.0035691871 -0.010771597 0.086966924 0.12432653
000280 f5 6e 33 3d 5b 8f 60 bd de 0f b5 bc 4c 50 19 bc
       0.04380699 -0.054824214 -0.022102293 -0.009357523
000290 e2 f7 96 bd 55 3e 80 3d d3 17 63 3d 46 68 f7 bd
       -0.07371499 0.06261889 0.055442642 -0.120804355
0002a0 3f 6a 99 bd bd f7 a0 3c 21 a2 b3 3d c0 68 50 3d
       -0.07490968 0.01964938 0.08771158 0.050881147
0002b0 01 1c 1d 3d 07 e8 2d 3d 09 79 4a 3d 15 e9 43 bc
       0.038356785 0.042457607 0.049431834 -0.011957427
0002c0 c8 e1 85 3b c1 e9 a9 39 a5 99 61 bd e1 4a 0f 3e
       0.004085753 0.00032408352 -0.055078167 0.13993408
0002d0 a3 67 21 3d f7 f5 19 be 02 05 29 be ea 36 cc bb
       0.039405476 -0.15035234 -0.16505817 -0.006232132
0002e0 9f 7a 19 bd 48 75 2b 3d 3d 3f 88 3c 15 1d b6 3d
       -0.037470456 0.041859895 0.016631717 0.08892266
0002f0 e3 ab 72 bd 45 f2 8d bd 6d 2d 28 bd 8d 3a 96 bc
       -0.059245955 -0.06930975 -0.041058946 -0.018338466
000300 0a e8 3d 3d 26 d8 fe bd cc 3b fd bc 8c e1 05 3f
       0.046363868 -0.12443571 -0.030912302 0.5229728
000310 87 73 d9 3d 1c 63 49 3f ce ab 8e bd 16 e7 84 3f
       0.10617738 0.78666854 -0.06966363 1.0383022
000320 df 48 a4 bd 48 4e 61 bd c5 c4 c0 3d e5 e0 1a be
       -0.080217116 -0.055006295 0.09412531 -0.15124853
000330 33 3d 4b be fc 7d 39 bb 51 93 dd 3c 3e f0 a2 bd
       -0.19847564 -0.0028303852 0.027047785 -0.07955979
000340 87 5d 5e be 55 5c 95 bd 24 40 10 be d2 94 0f 3e
       -0.21715365 -0.072930016 -0.14086968 0.14021614
000350 44 fb 19 3e c0 32 1a bd 23 05 57 be 2d 92 01 3f
       0.15037256 -0.037646055 -0.20998053 0.5061367
000360 41 73 7a be 0c 59 be bd 23 92 ef 3b ff 72 e8 3d
       -0.24458028 -0.09294328 0.007311122 0.11350059
000370 21 6a 9a 3c 7f e1 23 be 29 ed ac bc 54 84 3a 3e
       0.018849434 -0.16003989 -0.02110918 0.18214542
000380 c7 8c d3 3c 2f 36 e5 bd d4 44 33 3c d4 30 8c bd
       0.025823964 -0.11191975 0.010941703 -0.06845251
000390 24 94 57 bd 92 d0 af bd 74 0a 87 be 84 80 c0 bc
       -0.052631512 -0.085847035 -0.26375163 -0.023498781
0003a0 6a 65 c8 3e d4 c5 28 be dc e5 b9 3e 86 bd 8d bd
       0.39139873 -0.16481715 0.3630818 -0.06920914
0003b0 b1 c3 1b be ec c6 8c 3e c0 90 61 3c 79 46 2f be
       -0.15211369 0.27495515 0.013767421 -0.17116727
0003c0 5c 37 b3 bd cb 5b 97 bd ed de ee 3d 1b 7f 85 3f
       -0.08750793 -0.07390555 0.116636135 1.0429415
0003d0 67 ee e1 bd e9 22 97 3e 1b f2 5d 3f 79 c5 94 3c
       -0.110318 0.29518822 0.8669755 0.018160569
0003e0 41 de e0 3d a1 9f d6 bd 52 03 40 be 16 d1 ba 3d
       0.109798916 -0.104796655 -0.18751267 0.09121911
0003f0 4e 57 12 3d 35 fb 6b be f7 f2 3c 3d 9b 59 3a be
       0.03572779 -0.23045047 0.046130147 -0.18198244

lstm_recent.bias_hh_l0 f4 [256]
000000 ae 4f 9b bd a0 ae de 3a 95 d3 e1 bc 4e ae fa 3e
       -0.07583557 0.0016989298 -0.02756671 0.4896111
000010 b1 a4 48 3c ca ba 2f 3f d5 f4 58 bd 16 46 84 3f
       0.012246297 0.6864439 -0.052967865 1.0333889
000020 a4 a8 0e 3d a8 42 96 bd 2f 03 03 be 29 3f 6d be
       0.034828797 -0.073369324 -0.12794183 -0.23168625
000030 77 4a 84 bd ad a4 0a bc c0 75 14 be 1f 89 e5 bd
       -0.064595155 -0.008462113 -0.14498043 -0.112077944
000040 85 9d 25 be 25 44 5a bd 8e 30 e2 b8 5c 57 55 3e
       -0.1617337 -0.053287644 -0.00010785564 0.20834106
000050 5b ce 23 3e ea 60 2b be 78 b8 3b be 78 83 eb 3e
       0.15996687 -0.16736189 -0.18332088 0.4599874
000060 8f 94 39 be 4a fa 30 3c 73 9e e3 3d 01 7e 87 bc
       -0.18123077 0.010801861 0.11114206 -0.016539576
000070 78 fc 2e be d4 50 3d be c4 40 33 3d 51 b8 c3 3d
       -0.17088497 -0.18487865 0.043762937 0.0955664
000080 7d 80 11 3e 8f 16 0a be 69 8f b0 bc 11 af 99 3d
       0.1420917 -0.13485168 -0.021552758 0.075040944
000090 48 d2 00 3e 58 68 23 be d0 3c 86 be dc 1c a2 3d
       0.12580216 -0.15957773 -0.2621827 0.07915661
0000a0 5e 3c f6 3e 85 5b 86 bd ab 4a d1 3e 35 ba c9 bc
       0.48092932 -0.06560425 0.4087728 -0.024624923
0000b0 21 e7 92 bd dd eb ba 3e a5 b1 39 be f5 69 52 be
       -0.071729906 0.36508074 -0.18134172 -0.20548232
0000c0 3e d5 4f 3c 47 73 36 bd fe fc b3 3d 05 d3 75 3f
       0.012685118 -0.04454353 0.08788489 0.96025115
0000d0 6c f2 9c bd 4f f9 52 3e 7a bc 55 3f c8 9f 41 bd
       -0.07663426 0.20602916 0.8349072 -0.04727152
0000e0 3f 17 81 3d 39 25 9b bc 87 8e 3c be cd b1 99 bd
       0.06303262 -0.018938648 -0.18413745 -0.07504616
0000f0 c4 2e 4e bd c8 0f 65 bd 09 92 48 3d dd 70 2a be
       -0.050337568 -0.055923253 0.048967395 -0.16644616
000100 19 c6 d8 3d 32 21 b5 bd 4e 73 f3 bd e9 f4 06 be
       0.10584659 -0.08844222 -0.11887227 -0.13179363
000110 4e 72 78 3d ce fa e5 bc 93 b6 4c bd 70 78 99 be
       0.060655884 -0.028073695 -0.049978804 -0.299747
000120 e4 07 44 bd 94 62 ee bd 6d 3b 08 be 94 7e 8c bd
       -0.047859088 -0.11639896 -0.13303919 -0.0686008
000130 eb e2 b8 bd 04 f4 a1 bd 31 0f b1 bd ff 1e 91 bb
       -0.09027656 -0.079078704 -0.08645476 -0.004428744
000140 37 af 02 be 0f 21 b2 bd 2c 39 54 3c 97 64 44 be
       -0.12762152 -0.08697712 0.012953084 -0.19178997
000150 0e 45 25 3d 6a 88 91 bd bb 39 d2 bd 55 bc 47 be
       0.04034906 -0.07106097 -0.102649175 -0.19505437
000160 54 62 5e 3d 25 46 da 3d c5 47 06 be 23 ac 46 be
       0.05429299 0.1065791 -0.13113315 -0.19401602
000170 90 aa 48 bd 80 79 98 bd da 9f 05 bd aa 57 a7 bd
       -0.048990786 -0.07445049 -0.03262315 -0.081710175
000180 78 dc 6c 3d 4b e5 da bd 99 ed d8 bd 0b cb 7a bd
       0.057827443 -0.106882654 -0.10592193 -0.061228793
000190 66 dc bb 3d bc 26 31 3e ef 74 20 3d 0b c0 1a be
       0.09172897 0.17299932 0.039174017 -0.15112321
0001a0 ff 61 cf bd 57 79 6c ba 28 3a a8 bb 35 4d d4 3d
       -0.10126113 -0.00090207666 -0.005133886 0.103662886
0001b0 85 5f 0b 3e 30 41 db 36 a8 a6 a9 3d e7 51 49 be
       0.13610657 6.5342974e-06 0.0828374 -0.1966015
0001c0 46 93 1b bd 7a 65 18 3d cb ce ad 3d 82 c8 fc bd
       -0.037982248 0.03720615 0.08486708 -0.12342931
0001d0 cb 47 17 be ac b3 8f 3d 1d fd 0e 3d 8b c7 16 be
       -0.1477348 0.070166916 0.034909356 -0.14724557
0001e0 63 7e 24 be 58 2e 78 3d ea 86 45 bc ae 5a 12 be
       -0.16063838 0.06059107 -0.012056092 -0.14292404
0001f0 2d 3a 9b bb 42 cc a1 bd 4a f7 8e 3c 4d f3 b7 3b
       -0.0047371597 -0.07900287 0.017451901 0.0056137205
000200 22 33 67 bc d8 dd 42 bd 7a ed 03 be 36 b8 9a bd
       -0.014111312 -0.047574848 -0.12883559 -0.07554667
000210 61 17 4f 3d 22 a4 4c be b2 0b 33 3d f3 41 f9 3d
       0.050559405 -0.19984487 0.043712325 0.12170782
000220 6e d9 9f 3d 0d b8 b5 3d cd 3e da bc 1a 7f 44 bd
       0.07805143 0.088729955 -0.026641274 -0.047972776
000230 15 3b 25 bd aa c9 02 3c 90 1f 36 bd 60 82 b3 3d
       -0.04033955 0.007982651 -0.044463694 0.087651014
000240 57 95 29 3d 48 b6 0e bd c4 24 d3 3c e1 89 02 be
       0.041402187 -0.034841806 0.025774367 -0.12747909
000250 69 ca e5 bd 36 07 67 bc fe fa f7 bc ed 33 3b 3d
       -0.11220247 -0.01410084 -0.03027105 0.045703817
000260 33 2c bb bc df 94 a9 3d b8 dc 3b 3d 06 64 58 3d
       -0.022848224 0.08280348 0.04586479 0.052829765
000270 8c 02 15 bc 90 10 13 bc c2 2a 13 be ea 6e 3c bd
       -0.0090948455 -0.008976117 -0.1437178 -0.046004213
000280 c1 f4 f8 bd e7 53 25 bd 5c f4 1e 3c 20 ab ac 3d
       -0.12156058 -0.04036322 0.0097018145 0.08431077
000290 37 57 5f 3d 69 3e d2 bc 2e 40 3e 3b 0c 2e 06 3d
       0.054526534 -0.025664525 0.0029029953 0.032758757
0002a0 91 45 30 bc df e7 4c 3c 97 41 ab 3d 9e e6 dc 3c
       -0.010758773 0.012506454 0.0836212 0.026965436
0002b0 3f 27 5e bd d2 ad 19 3e 8f 2b 94 3d df 66 1f 3d
       -0.054236647 0.15007713 0.07234871 0.038916465
0002c0 f8 90 d0 3d c2 26 b4 bd 93 3e 8c bd 89 64 99 3d
       0.101839006 -0.08796455 -0.068478726 0.07489879
0002d0 c1 c4 0e bd 80 fd 7c 3d 11 03 bb 3c 3e 84 d2 3c
       -0.034855608 0.061765194 0.02282861 0.025697824
0002e0 02 57 22 3d 98 72 db bd 40 01 cb bc 0c d6 03 3d
       0.03963376 -0.107152164 -0.02478087 0.032186553
0002f0 b7 a1 f2 3d 69 e3 2d 3d e0 d4 9a 3d 4f a6 5b bc
       0.11847251 0.042453203 0.07560134 -0.01340635
000300 30 29 15 3e a5 47 e0 bc 67 0f 8b 3d b3 51 1d 3f
       0.14566493 -0.027377913 0.06790047 0.6145279
000310 52 22 87 3d dc e7 29 3f f9 52 33 3b 5a 41 74 3f
       0.06598343 0.66369414 0.0027362688 0.9541222
000320 42 2b b3 bd 97 a5 61 3d a8 e8 72 bc 00 91 54 be
       -0.08748485 0.05508956 -0.014825977 -0.20758438
000330 8e a5 85 be 27 45 73 3d 01 84 09 be 8a 63 bd bc
       -0.2610287 0.05939212 -0.13429262 -0.023118753
000340 01 ad 96 bd 0a b5 44 3c c0 b0 2a 3c 3a d3 21 3e
       -0.073572166 0.012006054 0.010418117 0.15803233
000350 1f e3 04 3e f2 aa 2a be 51 42 82 bd 13 32 e0 3e
       0.12977265 -0.16666773 -0.06360305 0.43788204
000360 96 f1 4f be 93 d1 3a bd dc ad 27 3e f2 d6 e9 3d
       -0.20307001 -0.04561002 0.16374916 0.11417951
000370 1c 86 7f bd c5 66 a1 bd 44 95 03 be b9 25 b9 bc
       -0.062383756 -0.0788093 -0.12849909 -0.022600995
000380 8c 55 ba 3d 59 22 79 bd b5 3e c4 b7 70 31 d3 bd
       0.09098348 -0.060823772 -2.3394221e-05 -0.10312164
000390 c8 73 1e 3e 3b ac 48 be 62 5e ef bd 3f 33 0f 3e
       0.15473855 -0.1959695 -0.11687924 0.13984393
0003a0 5f 5a c9 3e 3d 3a 32 bd e1 f1 c5 3e 95 8c 98 bd
       0.3932676 -0.04351257 0.386611 -0.07448689
0003b0 54 83 b6 bd e7 89 d3 3e 26 7d 08 be cd 4c 09 be
       -0.089117676 0.4131615 -0.1332899 -0.13408203
0003c0 43 0b 7a 3d 0a a0 ff 3c c0 bd 6f bd 26 fd 8e 3f
       0.061045896 0.031204242 -0.05853057 1.1171005
0003d0 2d d1 60 bd 66 42 5a 3e db c6 4b 3f 8b 4e 63 3d
       -0.054886986 0.21314391 0.79600304 0.055494826
0003e0 58 e0 ec bc e2 bc 59 bb 8b aa cf bd 33 2b a7 3d
       -0.02891557 -0.0033224155 -0.1013995 0.081625365
0003f0 d3 f8 aa bc 57 fb 7b bd c3 1a 7f 3d fd 96 d0 bd
       -0.020870602 -0.061518993 0.06228138 -0.10185049

lstm_day.weight_ih_l0 f4 [256, 1]
000000 13 e8 aa 3d e5 5f 83 bc 2a 76 5d be f4 16 66 3e
       0.08345046 -0.016036937 -0.21627107 0.22469693
000010 7f 93 ea be 18 dd 95 be 8e 89 39 bd 0d 9c 0b be
       -0.45815656 -0.29270244 -0.045297198 -0.13633747
000020 bc b6 2d be 5b 0a 9d be 32 5e 2c 3d 3d dd 61 be
       -0.16964239 -0.30671963 0.04208202 -0.22057052
000030 d2 a0 29 be 53 db ce be 5d 48 09 be 8a 7a 68 ba
       -0.16565254 -0.40401706 -0.1340651 -0.00088683574
000040 7a a1 c5 3d 16 29 0e 3e 68 52 ba bd a0 35 ab be
       0.0964994 0.1388286 -0.09097749 -0.3343935
000050 81 19 86 be 41 78 c0 bd 16 0c 30 be f5 7e 20 3d
       -0.26191333 -0.093979366 -0.1719211 0.039183576
000060 88 4e 90 be 1c 3d 9d bd 38 8b 38 be c7 4c 87 3d
       -0.28184915 -0.07677671 -0.18021858 0.06606441
000070 03 fc 9b 3e 40 78 f5 bd 1d 02 b6 bc 1b 27 1e be
       0.30465707 -0.119858265 -0.022217805 -0.15444605
000080 b6 84 93 be 18 6a a8 bd 27 dd 31 3d e9 a6 04 3d
       -0.28812188 -0.08223361 0.043423798 0.03238574
000090 67 38 f5 bd 04 69 19 bd ef 9e ae bd 02 f5 e2 bd
       -0.119736485 -0.037453666 -0.08526408 -0.11081888
0000a0 64 f1 ea be 2b 28 9e bd 7a 4b dc be 43 17 e8 bd
       -0.4588729 -0.07722505 -0.43026334 -0.11332562
0000b0 4b 61 00 bc 12 07 f1 bd 71 9c 65 be d3 37 b6 be
       -0.007835696 -0.11768927 -0.22422959 -0.35589465
0000c0 d1 df b2 be 6e 12 ab bd f1 bd 6d 3d 57 ae 51 3c
       -0.34936383 -0.083531246 0.05804247 0.0127979135
0000d0 75 1d 9b be b6 00 48 3e 2a 9a d6 3c 07 aa 3a be
       -0.3029591 0.19531521 0.026196558 -0.18228923
0000e0 ad fa 0c be cf 43 df bd 94 74 93 be e6 2a 54 be
       -0.137675 -0.10901605 -0.2879988 -0.2071949
0000f0 ed fc b9 bd a0 3a 91 be 99 54 8d 3c 41 69 17 be
       -0.09081445 -0.2836504 0.017252253 -0.14786245
000100 07 02 2e 3e a4 92 c7 3d f5 9b 2f bd d2 47 f3 3d
       0.16992961 0.09744766 -0.04287334 0.11878933
000110 86 81 be be 64 a3 0b be 56 be 09 be d1 c1 bd bd
       -0.37208194 -0.13636547 -0.13451514 -0.09265483
000120 21 5d e3 bd f7 3f a3 be 77 0d 01 be 48 4c 31 be
       -0.11101747 -0.3188474 -0.12602793 -0.17314255
000130 09 f2 43 bd 0c 64 cf bd 5a 45 2f be fb 4c 10 be
       -0.047838245 -0.10126504 -0.171163 -0.14091866
000140 76 38 05 bd 31 e4 d6 bc 1b a0 54 be d9 a6 b6 bd
       -0.03252455 -0.026231857 -0.207642 -0.089185424
000150 23 0b cd bd fc 7e 2b bd fd 9b 30 be 2f fe 83 3c
       -0.1001189 -0.04186915 -0.17247005 0.016112415
000160 67 f4 95 3c 02 05 0b be 5f fa 8e be a4 ef 8e 3b
       0.018305017 -0.13576129 -0.27925393 0.0043620635
000170 fd 10 cc 3d 59 65 8f bd ae 16 07 be 7a be 11 bd
       0.09964178 -0.070017524 -0.13192245 -0.035582043
000180 f9 9a 41 be c1 16 0c be a7 1e 02 3e bf 7a d9 bd
       -0.18906774 -0.13680555 0.12707005 -0.10619115
000190 73 df 00 3d f9 3c fe bd 31 b5 a7 bd 7d d7 08 be
       0.031463098 -0.12413973 -0.081888564 -0.13363452
0001a0 0c bd ad be 20 51 68 be 1f bb 1b be b0 e3 fe bd
       -0.33933294 -0.22687197 -0.152081 -0.12445772
0001b0 34 da 65 3d 9f 27 1a 3c 00 3c 93 bd ff 95 a5 be
       0.056116298 0.0094088605 -0.071891785 -0.32341
0001c0 09 33 19 3d f8 dd 01 3d 7d 8e bd 3b 0f 0a c8 bc
       0.037402187 0.031705827 0.005784808 -0.024418859
0001d0 34 4c a7 be 7b ed 1d 3d f4 f0 80 bd 26 18 eb bd
       -0.32675326 0.038556557 -0.06295958 -0.11479215
0001e0 e0 50 c8 bb 95 d9 ad bd e6 61 d3 bd 71 ad 92 be
       -0.0061131567 -0.08488766 -0.10321407 -0.2864795
0001f0 80 54 59 be 0a 20 1d be 66 24 e7 bb 64 ed 0e be
       -0.2122364 -0.15344253 -0.0070538996 -0.13957745
000200 07 e0 17 3e 40 89 26 3e 72 30 d4 3d ca 72 57 be
       0.14831553 0.16263294 0.10360803 -0.21039882
000210 3e c1 cf bd 2b 8e 0a 3d 37 50 dc 3d 2b 8a 0d 3e
       -0.1014428 0.03382699 0.10757487 0.13822238
000220 b6 74 55 be 75 b6 84 bc b7 39 13 3e b5 5e 95 3d
       -0.20845303 -0.016200284 0.14377485 0.072934546
000230 8c f1 a2 3d 67 50 9c 3d 0c 61 a5 bd 71 ac a3 3d
       0.07956228 0.07632523 -0.08075151 0.07991875
000240 55 e6 65 3e 0c a9 04 be 67 4f 1e 3e f5 56 1e bb
       0.22451146 -0.12955111 0.15459977 -0.0024160717
000250 57 e7 e7 bd a8 72 21 bd cf 65 2b 3e aa 63 2e 3e
       -0.113234214 -0.039415985 0.16738056 0.17030206
000260 17 e2 03 be 19 2f 08 3e 12 99 0a be e2 32 03 3e
       -0.12879215 0.13299216 -0.13534954 0.12812379
000270 64 39 6f be 43 27 5d 3e f4 84 60 3e 99 10 1a be
       -0.23361737 0.21597008 0.21925718 -0.15045394
000280 f8 f3 a8 3d 2c 02 27 bd 0f 72 5c be 84 aa 6c be
       0.08249658 -0.040773556 -0.21527885 -0.23111922
000290 b3 2f 09 3e 44 95 74 be d0 96 b5 bd 2b 1f 2f be
       0.13397102 -0.23885065 -0.08866656 -0.17101733
0002a0 a8 fc 86 bd 64 11 75 3b 03 c7 65 3c 91 f9 53 bc
       -0.06591159 0.0037394399 0.014024499 -0.012937919
0002b0 82 e6 52 be c2 da 2d be 11 a5 d0 bd 6e ef f1 3d
       -0.20595744 -0.1697798 -0.10187734 0.11813246
0002c0 d9 e3 1f 3e 2c cd 29 be 65 fa 7d be 92 ba c6 bd
       0.1561426 -0.16582173 -0.24802549 -0.09703554
0002d0 fc a0 91 3d 9c 94 4b 3e b4 58 2b bd c1 55 d8 3c
       0.071107835 0.19880909 -0.04183264 0.026408078
0002e0 71 0c 33 bd b9 73 59 3d 33 77 4a bd 11 7a 18 be
       -0.043713037 0.053088877 -0.049430083 -0.14890315
0002f0 de 0d 08 3d a7 17 6c 3d 3a 99 72 3d 62 3c 2a be
       0.03321635 0.057639744 0.05922816 -0.16624597
000300 83 23 1f 3d 20 57 c1 3d 8b d3 1c bc 9a e4 36 3e
       0.038852226 0.09440446 -0.00957192 0.17860642
000310 d1 1e d2 be ec 68 53 be ea 78 e9 bd 7a 8a 09 bc
       -0.41039136 -0.20645493 -0.11400016 -0.008394832
000320 9f 05 8a 3c 8a d8 e6 be f4 cf 49 3c fb a4 d2 3b
       0.016848383 -0.4508708 0.012317646 0.0064283586
000330 08 81 1a be 0d 5f d1 be 66 37 cb bd 5f b9 b0 bd
       -0.15088284 -0.4089283 -0.09922676 -0.08629107
000340 2c 3a 28 bd cf 27 86 3d 42 b0 db bb c7 2b 5e be
       -0.041071102 0.06550562 -0.006704361 -0.21696387
000350 c5 6d df be d1 48 aa bd 4d 1f 64 be 64 e8 06 bc
       -0.43638435 -0.0831467 -0.22277565 -0.008234117
000360 84 45 a0 be fe 75 8d bd d6 98 18 be d8 ed 0b 3e
       -0.31303036 -0.06907271 -0.14902052 0.13664949
000370 72 7a 6b 3e cd b5 41 be 0d 7e ff bd 96 4e 84 be
       0.22995928 -0.18917008 -0.12475214 -0.25841206
000380 8f 91 8d be 15 54 7e be 75 a5 f5 bb 5b 61 68 be
       -0.27650115 -0.24836762 -0.0074965307 -0.22693388
000390 df 83 89 bd f8 d7 91 bd a1 04 45 be 78 90 1f be
       -0.067146055 -0.07121271 -0.19240047 -0.15582454
0003a0 65 92 f3 be 04 41 9e be 94 e9 d8 be af 15 b2 be
       -0.47572628 -0.30908978 -0.42365706 -0.34782168
0003b0 e3 7d bc 3d 74 0f 83 bc 68 7b bc be 28 5f bc be
       0.092036985 -0.01599858 -0.36812901 -0.36791348
0003c0 01 ce 75 be b2 3a 12 be 1b c0 70 3d f2 3c 4a 3c
       -0.24004366 -0.14280203 0.058776956 0.012343632
0003d0 67 c4 7e be ef 8d ab 3d 1f 76 9c 3d af af cc bd
       -0.24879609 0.08376681 0.07639717 -0.099944465
0003e0 97 2f 32 be 9f 70 3d be 6d 2b c1 be a3 df 5f be
       -0.17400967 -0.18499993 -0.37728444 -0.21862654
0003f0 aa 65 e2 bd c4 de 49 be 8f 15 07 bd 12 b3 49 be
       -0.11054547 -0.19713885 -0.032979544 -0.19697216

lstm_day.weight_hh_l0 f4 [256, 64]
000000 5d d1 a9 bb 5c bf d9 3d d5 8a b5 bc cd 97 0d 3c
       -0.0051824288 0.10632202 -0.022160927 0.008642149
000010 39 2b c4 3d d1 bb 06 be e2 27 71 3e bd e8 5c 3d
       0.095785566 -0.13157584 0.2355037 0.053932894
000020 72 fa 9c be 73 cc 17 bc 7d 14 69 3d c5 cd 5c be
       -0.30659825 -0.009265053 0.056904305 -0.2156287
000030 d8 de dc 3d 3d 45 04 3d 7f cf 65 be 42 a3 42 3d
       0.107846916 0.032292593 -0.22442435 0.047518976
000040 15 70 84 bd b7 6f 8e be 6e 14 2f bd 33 29 d4 bc
       -0.064666905 -0.27819607 -0.042744093 -0.025898552
000050 62 52 40 bc 55 cb 95 3e 64 03 03 bd 0f 68 91 3d
       -0.011738392 0.29256693 -0.031985655 0.07099926
000060 ea df 9f 3d 33 b5 1a 3d b1 1d 84 be ae 66 69 3d
       0.0780638 0.03777046 -0.25803903 0.05698269
000070 89 82 8c be 7f bb 99 3d f6 b4 38 3e 64 a1 73 bd
       -0.2744334 0.07506465 0.18037781 -0.059480086
000080 a5 99 a2 3d 24 06 3d bc 12 a9 ae be 13 aa 45 be
       0.079394616 -0.011537109 -0.34113365 -0.1930316
000090 17 bd a9 3d ed 8b 68 be 81 36 20 bc 74 d2 03 be
       0.08288019 -0.22709627 -0.00977862 -0.1287325
0000a0 d6 8b cc bc 38 cb 08 be 1b 8b 2f bc ae c4 d9 bd
       -0.024969023 -0.13358772 -0.010714318 -0.10633217
0000b0 c8 1f 58 bd d8 e6 24 be be cd 92 3d 64 c3 1b 3e
       -0.052764684 -0.16103685 0.071681485 0.15211254
0000c0 d2 a1 a7 bc 52 b6 f8 bd d2 c9 66 be 78 2a e5 3c
       -0.020462904 -0.1214415 -0.22537926 0.027974352
0000d0 7b f0 35 3d 2b 62 78 3d 2b bd de bd 16 dc 7c be
       0.044418793 0.060640495 -0.10875925 -0.24693331
0000e0 d8 67 f3 bc 64 6e 30 3e c5 1c aa bd 08 62 7e be
       -0.029712602 0.1722961 -0.083062686 -0.24842083
0000f0 b2 8e 79 3c a5 db 1f 3e 38 38 63 3d 5b 35 f0 bd
       0.015231775 0.15611131 0.055473536 -0.11728927
000100 25 49 cb bd 57 6a e7 3d fa 37 3f bd cf cb cb 3d
       -0.099260606 0.112995796 -0.046684243 0.09950983
000110 1f 6b 11 3e 1d b6 0e be af f1 67 bc bb f8 4b 3d
       0.1420102 -0.13936658 -0.014156743 0.049797755
000120 c8 51 3a be d9 1d 08 be 65 11 69 3b 41 ab e9 bd
       -0.1819526 -0.13292636 0.0035563346 -0.11409617
000130 4f f7 89 3e 1b da a7 3d ad 7e 44 bd 4a 63 e3 3c
       0.26946494 0.08195897 -0.04797237 0.027757306
000140 5a 2d 4f bd c4 7b 21 3c 03 af 3e bd 6b 5f dd bd
       -0.05058036 0.009856168 -0.046553623 -0.10809215
000150 52 76 d3 bd 18 d9 08 3e 9c 39 a8 3d 90 a1 d8 bd
       -0.10325302 0.13364065 0.08214113 -0.105776906
000160 87 28 1a bd 58 c8 9d 3d 0c fc 93 bd c6 6d df bc
       -0.037636306 0.07704228 -0.072258085 -0.027274024
000170 8c 58 4a be 9a 35 06 3d 3d 32 e5 3c ed 7b c1 bd
       -0.1976034 0.032765962 0.027978057 -0.09447465
000180 99 37 ba 3c 98 5d 09 3e a4 e3 99 be 53 b7 a4 be
       0.02273159 0.1341461 -0.3005649 -0.32171115
000190 fe 5c 46 bd 07 de 1e be be 20 62 3d 2a 76 7e bd
       -0.048428528 -0.15514384 0.055207007 -0.06212441
0001a0 72 e4 2c be e9 ea 65 3c d4 29 ed 3d 4f 1e ca bd
       -0.1688402 0.014033058 0.11580244 -0.09869062
0001b0 a8 b2 9d 3d c8 51 ca be dc 1a cb bd 41 5f 29 3e
       0.077000916 -0.3951552 -0.099172324 0.16540243
0001c0 c5 73 75 3d 5c 50 e4 bd 17 6f cf 3a 58 88 99 bc
       0.05992486 -0.1114814 0.0015825954 -0.018741772
0001d0 d3 b4 27 3e d9 da f6 3d c0 70 70 bd c2 c6 32 bd
       0.16377573 0.12053461 -0.058701277 -0.04364658
0001e0 da 45 8d be b2 f5 f7 3d 03 66 d0 3d dc e5 c5 bd
       -0.27592355 0.121074095 0.10175707 -0.09662983
0001f0 74 e2 00 3e ec 85 96 3e 89 7c bb 3c 7e 99 c7 3c
       0.12586385 0.2939905 0.022886531 0.024365183
000200 c6 5b 73 be e2 89 88 bd 0e dc 99 bc dd 9d 31 3d
       -0.23765478 -0.06666924 -0.018781688 0.04336344
000210 06 02 aa bd ca e1 a0 bc c1 ec 7a bd 95 f2 af bc
       -0.08301167 -0.019638915 -0.061260942 -0.021477977
000220 f9 41 ae 3c a1 c4 2c 3d 27 e3 4c be 6e 6d 8b bd
       0.021271693 0.042179707 -0.20008527 -0.068079814
000230 e8 46 4c 3c 98 18 95 bb 71 63 da bc 16 70 0c 3d
       0.012468077 -0.004550051 -0.026658745 0.03428658
000240 9a 36 27 be f0 8d bc 3c 7d 2b 10 be a0 9a 03 be
       -0.16329423 0.0230169 -0.1407909 -0.12851954
000250 6a 87 0f 3e 56 29 39 bd e8 91 d2 3d db c4 bd 3c
       0.140165 -0.045205437 0.10281736 0.023165157
000260 d2 53 16 3e bb 51 9e bc d9 8b c8 3d 3a 28 98 ba
       0.14680412 -0.019326081 0.09792299 -0.0011608668
000270 2a 6d 69 3c 5b 14 bf 3d 3f 94 f8 3c 4f 64 7b 3d
       0.014247218 0.093300544 0.030344127 0.06137496
000280 89 6d e1 bd 4d ed 57 3c 80 db 24 3e 88 62 4f bd
       -0.1100722 0.0131791355 0.16099358 -0.050631076
000290 6d e4 98 3d 10 9f f9 3d 4e d2 85 3c 04 63 b8 bc
       0.07465444 0.12188542 0.016335633 -0.022508152
0002a0 c0 0d 3f bc b7 b1 20 be 05 67 2e be cb 3a c2 3d
       -0.011660993 -0.15692793 -0.17031486 0.0948387
0002b0 d9 8c c5 3d 81 f4 08 3e 00 c2 71 bc 48 a4 12 be
       0.09646005 0.13374521 -0.014755726 -0.14320481
0002c0 e9 a3 08 be 00 05 1a 3e da ce 11 3d 15 5b 73 bb
       -0.13343777 0.1504097 0.03559766 -0.0037133147
0002d0 a1 6e 75 3d 86 47 4a bb 8c e2 92 bb 85 ee 90 3e
       0.059919957 -0.0030865385 -0.004482573 0.28306976
0002e0 a7 83 6b bd fb 34 4c be 83 bb e5 3d b4 15 06 3e
       -0.0574986 -0.19942085 0.11217406 0.13094217
0002f0 ca 12 5b bc 5c c4 6c be dd f5 45 be ff fe e8 3d
       -0.013371179 -0.2312178 -0.1933207 0.11376762
000300 82 fa d5 3c 04 16 44 bc 62 6e ec bc d5 4a 90 3d
       0.026120428 -0.01196814 -0.028861228 0.07045523
000310 0d 0a 81 3c e2 9e 97 bc 27 db 80 3e 55 c2 ad bd
       0.015751863 -0.018508378 0.251672 -0.084843315
000320 b3 ac 3a be d4 71 66 bd cb 13 34 3d fa 2b 7b be
       -0.18229942 -0.0562609 0.04396419 -0.24528494
000330 95 c0 58 3e da f1 f9 bd f9 1c 47 be 0e 9a 97 bd
       0.21167214 -0.12204333 -0.19444646 -0.074024305
000340 41 d1 57 bd 42 c1 bc bd 00 a0 a0 bd fd 33 da 3d
       -0.052689794 -0.092165485 -0.078430176 0.10654447
000350 43 bf d8 3d a9 cf 8b 3e 50 35 34 3d ac 92 6d bc
       0.10583355 0.2730687 0.043996155 -0.014500301
000360 6b 20 b7 3d 1b f6 1f 3e 8c 5c a0 bd 1d 5a ed 3d
       0.0894173 0.15621226 -0.07830152 0.11589453
000370 51 91 68 bd 9d 22 dc bd 9a ae 6f bb 2e a8 8f be
       -0.05677921 -0.107487895 -0.0036572577 -0.28057998
000380 77 98 fe 3c 5d e9 bc bd 87 87 01 bf 61 3c cf bd
       0.03107856 -0.09224198 -0.50597423 -0.10118938
000390 98 7e 25 3e 13 bc b5 bb 27 de 93 3d 88 ac 28 bc
       0.16161573 -0.005546102 0.072201066 -0.010295041
0003a0 c2 3f 27 bd 15 36 61 bd c3 dd b0 bd 8b a0 a8 be
       -0.04083229 -0.054983217 -0.08636048 -0.32934985
0003b0 d5 5c ca 3d 88 cc 87 be 99 e8 dc bd 62 85 95 3e
       0.098809876 -0.26523232 -0.10786552 0.29203326
0003c0 8e e2 36 3e 10 28 f9 bd 2b 9d 81 be 28 c7 66 3d
       0.17859861 -0.121658444 -0.25315222 0.056342274
0003d0 2a 2f 03 3e 5a 50 c5 3d c8 5b ca bd 43 a9 35 be
       0.1281096 0.096344665 -0.09880787 -0.1774035
0003e0 1f d4 61 be 28 74 6e 3e 78 6d bc bd 3c 8e 58 be
       -0.22053574 0.23286498 -0.09200567 -0.21148008
0003f0 ef 45 01 3c f3 14 b4 3e fd 41 8e bc 1c 75 06 3e
       0.007890209 0.35172233 -0.01736545 0.13130611

lstm_day.bias_ih_l0 f4 [256]
000000 80 0c a2 3b 03 8c 2a be 50 d2 26 bc 7f 0d 03 3d
       0.004945338 -0.16654973 -0.010181978 0.031995293
000010 d3 6e cf be 97 8e 8e bd 4c 20 77 3d 83 ce ad bd
       -0.4051424 -0.069607906 0.060333535 -0.084866546
000020 06 21 0f be a1 4e 62 be 69 d4 37 be e0 4e 70 be
       -0.13977441 -0.22100307 -0.17952122 -0.23467588
000030 e4 cc af 3d 88 83 86 be 31 ca 18 be 65 ca 04 be
       0.08584002 -0.26272225 -0.1492088 -0.12967832
000040 c0 1c 1a 3c 69 a6 11 bd 94 d5 a9 bd 45 2c a2 be
       0.009406269 -0.03555909 -0.0829269 -0.316744
000050 af e1 f4 3d b8 53 01 be 1a e2 6f 3d f0 41 6d 3b
       0.11957108 -0.12629592 0.058565237 0.0036202632
000060 af 17 39 3e 39 fe 92 be bb 18 a1 bd 6b fe cf bc
       0.18075441 -0.28709581 -0.07866045 -0.02538987
000070 f8 93 24 3e de a2 c8 bd a9 31 d0 bd 8e 28 29 be
       0.1607207 -0.097966895 -0.10165722 -0.16519377
000080 87 2c 28 be 8a 9f 96 bd ac 15 97 bd 91 5f 53 3d
       -0.16423236 -0.073546484 -0.073771805 0.05160481
000090 ed 76 d0 bd 64 22 26 3c 9d 5a 14 bd 49 45 2a be
       -0.10178933 0.010140035 -0.036219228 -0.16627993
0000a0 cc 4b 0c be 49 fe 84 be 8e 89 76 3d a8 63 67 be
       -0.13700789 -0.25975254 0.060189776 -0.2259661
0000b0 ac 19 53 bd e6 61 fa bb db 1d 21 be 0c 90 c1 bd
       -0.051538154 -0.007641065 -0.15734045 -0.09451303
0000c0 99 0c 31 be b0 6d de bd 09 2e 0a 3d bf f5 a7 bd
       -0.17289962 -0.10860765 0.03373531 -0.08201169
0000d0 ff f3 b1 3c 55 45 17 3e 47 53 14 be ed ce 0f bd
       0.021722792 0.14772542 -0.14484893 -0.03510945
0000e0 70 51 17 bc d1 70 7a be c1 21 ac bd 9f 93 75 be
       -0.009235725 -0.24457099 -0.084048755 -0.23982094
0000f0 38 f9 e1 3c 38 c4 4a be 05 44 3f be be 47 45 3d
       0.027584657 -0.19801414 -0.18678291 0.04816412
000100 b4 a2 45 bd 74 e9 1d be b0 22 22 3d 5c cb d2 3d
       -0.04825087 -0.15421087 0.03958386 0.10292694
000110 19 2c ca be cf 1c 2c be d3 66 77 3d 69 a0 35 3d
       -0.3948677 -0.16807865 0.060400795 0.044342432
000120 cc 4b 0b 3e 4d 5f ef bd aa ce da bd 0a 03 0d be
       0.13603133 -0.11688099 -0.10683949 -0.1377069
000130 6e 97 c9 3d 73 3a a8 be e5 60 95 bd 88 92 10 bd
       0.09843336 -0.32857093 -0.07293872 -0.035295993
000140 03 5e 63 bc 14 d9 ff 3d bb f6 27 bd d1 1c 2d be
       -0.013877395 0.12492576 -0.041006785 -0.16905524
000150 34 20 00 bd 9d 93 76 3b 1a 7d 94 3d 0e 7a c3 3d
       -0.03128071 0.0037624605 0.07250424 0.095447645
000160 47 fb 8e 3e 60 d1 86 be 9b 76 57 be d5 7e 07 3e
       0.27926084 -0.26331615 -0.21041338 0.13231976
000170 ae 23 94 3d d9 0c b9 3d 2e 3b b4 3d d7 9a 52 bd
       0.07233368 0.090356536 0.0880035 -0.051417198
000180 df 78 9a 3d 19 22 ca 3d 03 9e d7 3d 47 3a 11 be
       0.075425856 0.09869785 0.10528185 -0.14182387
000190 bc 1b 42 3d 6b 97 8f 3d 0d fd c3 bd fd 1d e4 3c
       0.04738973 0.070113026 -0.0956975 0.02784633
0001a0 c0 5c cc bd 40 71 f1 bd f0 08 35 3c 95 18 00 bd
       -0.09978628 -0.11789179 0.011049494 -0.031273443
0001b0 61 3f dd 3c 20 25 1f 3e 34 f9 ed bd ec 77 a6 bd
       0.02700776 0.15541506 -0.11619797 -0.08128342
0001c0 2f 1a e6 3b 1f 3f a5 3d 5c db ce 3d c7 a7 df bd
       0.0070221643 0.0806868 0.10100433 -0.10920673
0001d0 9a 5d 80 bd 6f e2 3e 3e 88 cf 7d 3d 48 df 2f bd
       -0.06267853 0.18641065 0.061965495 -0.042937547
0001e0 c4 55 e7 3c 06 9a 37 be 65 68 ea bc 4a 28 22 bd
       0.028239138 -0.17929849 -0.028614232 -0.039589204
0001f0 c6 b6 b0 3d 5a 82 2a be 04 d4 f5 bd a1 5b da 3d
       0.08628611 -0.16651288 -0.120033294 0.10662008
000200 a6 2a b8 3b 62 8f 0e 3c a6 3f db bd 83 59 40 3d
       0.0056203185 0.008701177 -0.10705499 0.046960365
000210 e9 f8 11 bd 64 57 a1 3c 7e 33 5e bd 3b d0 b1 bd
       -0.03563777 0.019694991 -0.054248326 -0.08682295
000220 29 6b cf 3d b2 eb 48 bc 3c fb a8 bd e9 7a 41 bb
       0.10127861 -0.012263225 -0.08251044 -0.0029522723
000230 a9 bc 82 3c b5 97 8c 3c 8d 20 93 3d 45 65 a0 bd
       0.0159591 0.017162183 0.07183943 -0.07831816
000240 e5 95 de bc 9f b5 01 3e a8 46 5e bd 8c 54 64 bd
       -0.027171085 0.12666939 -0.0542666 -0.055744693
000250 26 16 f8 ba d2 9f 4c 3b 5a 60 1f bd 02 38 8a 3b
       -0.0018927499 0.003122319 -0.038910247 0.0042181024
000260 f4 86 13 bd 19 07 87 bd 25 71 b7 3d b7 a7 b3 3d
       -0.036017373 -0.06593151 0.089571275 0.087722234
000270 26 79 a0 bc c3 a8 7d bd 5c 0f 95 bd 57 2b ae bc
       -0.019589018 -0.06192852 -0.0727832 -0.0212609
000280 82 65 ec bc 17 01 07 3d 36 60 20 bc fa fa 88 3d
       -0.028856996 0.032960024 -0.0097885635 0.06688495
000290 d1 82 ab bd 9a 96 cc 3c 78 74 89 3d d2 fd 62 bb
       -0.083745606 0.024974156 0.06711668 -0.0034636152
0002a0 b3 1b 87 3d 3a 28 08 3c c9 5c ad 3d 3c a6 6f bd
       0.0659708 0.008310372 0.08464963 -0.058508143
0002b0 65 67 4e bd 56 29 1f 3d 42 85 8f 3d f8 41 ae bd
       -0.050391573 0.03885778 0.07007839 -0.08508676
0002c0 e9 e8 90 bc ac 97 92 3d f1 5f 8e 3d e4 76 b2 3d
       -0.017689185 0.07157835 0.06951893 0.08714083
0002d0 77 6d 12 3d e5 fc 62 bd d3 ca e7 bd 1c 06 d6 3c
       0.035748925 -0.05541696 -0.113179825 0.02612596
0002e0 0e 34 71 3d 26 c6 e3 3c c6 3a dd 3c 90 fd 0b 3e
       0.058887534 0.027804445 0.027005564 0.13670945
0002f0 cc c1 81 bd 4d 57 ae 3b 9c 2f 45 39 f3 1e 04 3d
       -0.06335792 0.0053204657 0.0001880512 0.032256078
000300 d9 33 52 bd b0 32 2d be 7d ed 82 3c a2 d3 77 3d
       -0.051318977 -0.16913867 0.015982384 0.060504563
000310 d7 fa b8 be e4 30 23 be b4 96 d6 bd 5f 0f 20 bd
       -0.36128876 -0.15936619 -0.10477963 -0.03907716
000320 95 bf d9 bd 15 c7 3c be b1 64 27 be e9 7d 5d be
       -0.106322445 -0.18435319 -0.16347004 -0.21630062
000330 58 64 0a be ef 71 91 be 4e 52 2f be 51 c2 82 bc
       -0.1351484 -0.28407237 -0.1712124 -0.015961798
000340 2e ff f2 bd ee d2 30 3d ad 54 b3 bb f9 7f 98 be
       -0.11865078 0.04316991 -0.0054727406 -0.29785135
000350 70 e8 ff 3c 57 a6 26 bd a2 9e 2a be 6b 6f 2d 3c
       0.031238765 -0.040685978 -0.16662076 0.010585646
000360 72 b6 3b 3e 6a b8 8f bd 11 58 c7 bd 58 42 28 3e
       0.18331316 -0.07017596 -0.09733594 0.16431558
000370 59 10 8c bb 94 c7 d8 3d a8 4e 2f 3c b2 20 22 be
       -0.0042744097 0.105849415 0.010699905 -0.15832785
000380 ca 5c 89 3c 59 fd 07 3e c0 ac a8 bd d2 47 9b 3c
       0.016767878 0.13280238 -0.082360744 0.018955145
000390 2f 66 44 bd 6a e6 d0 3d 42 10 8d be 17 d7 0b bd
       -0.047949012 0.10200198 -0.27551466 -0.034140673
0003a0 ab 98 7f 3c f6 f5 52 be 69 09 f8 3b 6c 14 6d be
       0.015600364 -0.20601639 0.007569481 -0.23152322
0003b0 ad eb 8a 3d a0 61 9e bd d5 98 9e be cd 3f 04 be
       0.06783233 -0.07733464 -0.30975977 -0.12914963
0003c0 6a 72 a4 bd b4 d3 93 bc 81 e5 a1 3d b4 9d 30 be
       -0.08029635 -0.018045284 0.079051025 -0.17247659
0003d0 f8 8f 45 be 8a eb 03 3e 53 97 4a 3d 04 eb 4b be
       -0.19293201 0.1288282 0.04946072 -0.1991387
0003e0 22 86 4c be fc 62 4f be 51 98 60 be bd be 9c bd
       -0.19973043 -0.20252603 -0.21933104 -0.07653568
0003f0 83 82 18 be ea 16 3f be 01 01 1a be 8a ef 84 bc
       -0.14893536 -0.18661085 -0.15039445 -0.016227502
