checkpoint/single_stream_model.pth (torch, 338824 bytes, 8 tensors)

lstm.weight_ih_l0 f4 [512, 1]
00000000: 8e5a debd ef60 13bf ef83 02be 8b56 41be
00000010: a54d 76be 3018 7cbd f74d 0cbf 20c0 65be
00000020: f4aa 023d 7b47 6fbe 9c2a 5fbe 54f6 0dbe
00000030: ed73 f83c 5135 4fbd 3b4d 80bb eb3d c23b
00000040: f937 8cbe 9146 26be 7b55 c9be 42ce 803d
00000050: 70ad 3fbd 5d01 e9bd 36aa 58be 1d29 963d
00000060: dcf0 8fbe ac29 e7bc 958e 04bf c6ce 3abf
00000070: 7a96 b2be e95b 00be 51bf b3be cfdf d6be
00000080: 81f4 d7bc c5a6 f1bc 7ec6 4dbe 00d7 1f3c
00000090: d9b1 0cbe 8bc8 cabe 5b74 b9bc 68cc 11be
000000a0: a46f c4be 0faf 67ba b996 8bbd 3838 aabd
000000b0: 4b26 82bd 1e75 8cbe 4ea3 f73c f523 8dbd
000000c0: 6ed9 d8bd 0adc dabe 9a35 79be bc76 6ebb
000000d0: c45f 85be 20bd 16bd 19bd 87be ac92 9cbe
000000e0: ca7a 09be 3642 12bf afe1 403d c923 35be
000000f0: e790 48bf a203 cabe a35a ed3d b9a6 90be
00000100: c2f0 1abe 857d a6be 23c4 e6bc e8e1 eebd
00000110: 822f 14be 7b33 68be 0051 47bd 9a8f f73c
00000120: 722e 2abe b254 96be bc49 ebbe a602 36be
00000130: d97e ebbe e5f1 85be 73de 02bd 4808 47be
00000140: bee2 bcbd 5f1e 5abd c526 aebb e622 9dbe
00000150: 6de8 a33d adb8 8fbd efe7 7b3c 84ee 1d3c
00000160: 7356 3dbd 3f00 8bbd 72c4 d83d 3593 febd
00000170: 664b 20bc c7a1 1abd 389f 033a 41a0 b9bd
00000180: c055 61bd 047b 99be a6fd 6ebe badc febd
00000190: 10ce 9dbe 01b9 78bd 77a4 b7be 151a 31be
000001a0: 45e1 4bbe 2fe3 85be 93ca 73be fb31 f3bd
000001b0: dbed 5cbf a6bd 89be 6c7a d83d aa7d 4cbe
000001c0: 9ffd 5dbe 2037 adbb 5347 84be fed0 c2bd
000001d0: 517e 063e ed30 69be 9c87 fdbe ef4b 18be
000001e0: a180 fabd 5fed a5bd 7edd debe 1331 c2be
000001f0: a5fb 8cbe 15f0 08bf 4a7b 0fbe 437e 88be
00000200: 985d d3bd 32d0 8c3d d356 573d 621e 48be
00000210: 83ce c6bd df79 bd3d d0c1 cebd 7881 5cbe
00000220: 3667 483c c5e2 54be 7b69 e2bd 3fc6 45be
00000230: f1fc 863c e553 643e 04fa 8c3d a5d3 2abd
00000240: 0ad6 4cbe dc66 d0bc 10ec 22be 5bb7 453e
00000250: 03be 2b3e f845 31be d9ff 83be e549 d3bd
00000260: f6b3 1bbe 67a2 abbc f73d 25be 5ff1 f1be
00000270: 3128 86be c098 ae3d 0f62 1ebe bdd8 f9bd
00000280: 068c 15be d590 20be 0b13 513d 775e f8bd
00000290: 59f6 a6bd 1579 23be 7b05 13be bc8a 633e
000002a0: 3f4d c0bd 5804 c53d 92c5 a6bc 26dd bc3a
000002b0: e61c 543c c43b f6bd ec2b 07be 3b7e b5bd
000002c0: 04a7 80be 312f d1bd c1f3 f93c 5e7a 32bd
000002d0: 1111 46be e498 79bb 89d3 84be f20f 89be
000002e0: 9e86 6a3d 54ea 8abe 33cd b43d 662a 78bb
000002f0: 67c9 67be 612c acbe e03e ba3d da1a 5fbe
00000300: fc41 7ebd 5ff2 b0bd fc06 b73d 7ad2 12be
00000310: ce1f b93d f951 c4bd 2bd3 73bd 86e6 5a3e
00000320: 67cf 90be 9b50 67be 5fc0 39bd ee84 babb
00000330: db48 16be a409 99be 94f5 0fbe d03e 8bbc
00000340: dedd b03c 82cb e83c e52a 463c c0bb 15be
00000350: c4df 89bc 41d8 95bd 4f99 b3bd cb06 6b3e
00000360: 3d3a 853c 769f e93b 650a 21be 8428 1bba
00000370: 3870 09be 1e67 60bd 5151 cc3d 7263 9bbd
00000380: e2e8 dfbd 3421 bdbc ff4b 8ebd b57f cabd
00000390: d34f 94be 46b0 ccbd 2a8e 59be 8fdf 38be
000003a0: 0c30 d7bd a3f4 c4bc 5e2e a93d 0070 003e
000003b0: 05a6 3cbe 15ef 77be 560f 8f3d 2ecf cabd
000003c0: 7c61 27be 70d2 923d ac27 94bd b146 ac3d
000003d0: ea7b 4f3e b1d4 19be 829d b9be aea5 38be
000003e0: d612 2abe 3dfc cd3d 4944 643e a7f2 7abe
000003f0: b43e f2bd 84d7 8dbe ff1a 9fbd b154 4ebe
-0.10857116 -0.57569784 -0.12745641 -0.1888067 -0.24053057 -0.061546504 -0.54806465 -0.22436571
0.031901315 -0.23367111 -0.21793598 -0.13863498 0.030328715 -0.050587956 -0.0039154566 0.0059277914
-0.27386454 -0.16237856 -0.3932303 0.062893406 -0.046796262 -0.11377213 -0.2115868 0.073320605
-0.2811345 -0.028218113 -0.5178006 -0.7297176 -0.3488043 -0.12535061 -0.351069 -0.41967627
-0.026361706 -0.029498467 -0.2009525 0.00975585 -0.13739718 -0.39606127 -0.02263849 -0.14238131
-0.38366425 -0.00088380364 -0.068158574 -0.08311504 -0.0635496 -0.27433103 0.030229237 -0.06891624
-0.105883464 -0.42746 -0.24336854 -0.003638669 -0.26049626 -0.036801457 -0.26511458 -0.30580652
-0.13425747 -0.5713228 0.04709023 -0.17689432 -0.78346103 -0.39455897 0.11589553 -0.282522
-0.15130904 -0.3251764 -0.028169697 -0.11664182 -0.14471248 -0.22675888 -0.048661232 0.030219842
-0.1661928 -0.29361492 -0.45954692 -0.17774448 -0.45995215 -0.26161113 -0.031950425 -0.19436753
-0.09222935 -0.05325162 -0.0053146803 -0.30690688 0.08003316 -0.07017646 0.0153751215 0.009639386
-0.046225023 -0.06787156 0.10584344 -0.12430421 -0.009783601 -0.03775194 0.0005020979 -0.09063769
-0.05501342 -0.29976666 -0.23338947 -0.12444444 -0.30821276 -0.06072331 -0.35867664 -0.17295106
-0.19910152 -0.2614989 -0.23807745 -0.118747674 -0.8630044 -0.26902503 0.10570225 -0.19969812
-0.2167878 -0.0052861124 -0.25835666 -0.09512518 0.13134123 -0.2277257 -0.49517524 -0.14872716
-0.12231565 -0.081019156 -0.4352836 -0.37928066 -0.2753574 -0.53491336 -0.14011875 -0.2665883
-0.10320586 0.068756476 0.052573036 -0.1954284 -0.09707358 0.09251761 -0.100955606 -0.21533763
0.012231639 -0.2078963 -0.11055275 -0.19313906 0.016478034 0.22297628 0.06883624 -0.041705746
-0.20003524 -0.025439672 -0.15910363 0.19308226 0.16771702 -0.17311847 -0.25781134 -0.10316829
-0.15205368 -0.020951463 -0.16136919 -0.47254464 -0.2620254 0.085252285 -0.15467094 -0.12199543
-0.14604196 -0.15680249 0.05104355 -0.12127393 -0.08152456 -0.15964158 -0.1435756 0.22220892
-0.093897335 0.09619969 -0.02035788 0.0014409169 0.012946343 -0.12023118 -0.13200349 -0.08861967
-0.25127423 -0.10214079 0.030511739 -0.04357373 -0.19342448 -0.0038085515 -0.2594264 -0.26769978
0.057257287 -0.27131903 0.08828201 -0.0037867068 -0.22635423 -0.33627608 0.09094024 -0.21787587
-0.062074646 -0.086399786 0.08936879 -0.14338103 0.090392694 -0.095859475 -0.059527557 0.21377
-0.28283235 -0.22589342 -0.045349475 -0.005692116 -0.1467623 -0.29890168 -0.14058524 -0.016997725
0.02159017 0.028417353 0.012095188 -0.14622402 -0.016830333 -0.07316638 -0.08769476 0.2295181
0.016263122 0.007129605 -0.15726621 -0.0005918818 -0.13421714 -0.05478584 0.099764474 -0.07587327
-0.10933091 -0.023087122 -0.06948089 -0.098876394 -0.2896715 -0.09994559 -0.21245638 -0.18054031
-0.10507211 -0.024042433 0.08260797 0.12542725 -0.18422706 -0.24212296 0.06985347 -0.09902798
-0.16345781 0.07169044 -0.07234129 0.08411921 0.20262113 -0.15022542 -0.3625298 -0.18031952
-0.16608748 0.10057876 0.22291674 -0.24506627 -0.11828366 -0.27703488 -0.07768821 -0.20149495

lstm.weight_hh_l0 f4 [512, 128]
00000000: 123b 26bb a748 45be 21e0 103d 5e5b 2b3c
00000010: 9f05 003e 4010 9cbe f901 b03e 3b81 9c3d
00000020: 3b7e 1abe 5ff3 633c f7ae 87be 3345 8dbd
00000030: c365 90bd abdb 17bd aee5 56bd fa7c a63d
00000040: a7fc 223d 0947 273d 7980 90bd 1cd9 9cbc
00000050: c6ac b53d 0856 4d3c 4b39 82bd 6865 273e
00000060: 97d6 44be 3e17 24be 60bb 013c ff62 c9bd
00000070: d299 f6bd 15f5 593d 4da0 9a3d a47f 77bd
00000080: 1932 093e 113f 2b3e 5a30 2a3e b185 6abd
00000090: 038c 813d cd8d 393e 5036 59be c4b8 953d
000000a0: f7e1 efbd 84d8 97bc ba30 6d3c e7ee 01be
000000b0: 3e6e f0bb 317c 0ebc 9c3e b53e df1a 963e
000000c0: 7d3a 6a3e 2294 4b3e 7af3 143e a64c 9e3d
000000d0: ec1a 6ebe cd68 723d c568 ebbd 49d6 b2bd
000000e0: dbfa 66be 0f47 123c 5005 9cbd 6c11 25be
000000f0: 7e96 e53d 0220 8b3c 17ac 243e ec0c 11be
00000100: 4a84 52be fd32 183c 64f8 a83c c278 56be
00000110: 25a4 cd3a cf61 453d 9686 f13d 3b3a 8f3e
00000120: ed29 b33d 6bdf dabd cc8d d4bd a161 153e
00000130: a679 06be 6c42 c93d f773 aebd 7ee4 8a3d
00000140: 955e e5bd 225d 183e 9a69 4abe e667 39bd
00000150: 4b09 f93d dd3d b13d 9c9a 37bd c33b 453d
00000160: 2a09 10be 4458 6ebd 5c1c fbbc 901b d4bd
00000170: d8b9 28be 883f 193d 8fbe 0ebe ab4e 2c3e
00000180: b385 3a3e 55c2 703d 5ecd b63d 1a84 583e
00000190: 692c 52be 086a 3c3e d265 39be 6e3f d9bd
000001a0: ec33 693d 98fc 4abe c334 23be 81c5 e83d
000001b0: 6340 8c3e ff30 3f3e da51 1abd 0de6 c1bd
000001c0: b4cc 913d 6ea9 8bbe acb0 dabd 13c1 f83d
000001d0: 7af1 5a3d 62fc f03d 92c6 cbbd 840b b63d
000001e0: 5b45 093e d885 bc3d 3800 4dbe 7ef8 943d
000001f0: 0b39 963d 0c02 043c 66d0 91bd dd83 a93d
00000200: 64a8 81bd 02bf ffbc b4db 5e3e 3ec5 79be
00000210: 0875 a2bd c0b1 36be 7b64 a93c 93db 253b
00000220: b428 17bd da21 093e 1e58 47bd 204b 50be
00000230: df84 02be 6aeb 1bbe 848c b7bd 797f b0bc
00000240: ea15 4ebd ad44 4abe 8398 0abe 5325 7fbd
00000250: 2908 973b f8f1 93bd 4b11 89be c875 ec3e
00000260: be27 223e 0038 33be edd5 cf3e 6111 8c3c
00000270: 68fa a13e 988d 67bb dbe0 853d 007a 893d
00000280: d987 b7bd 91ce 4b3e 6d6c db3d b335 05be
00000290: 86a4 823d 9871 b13d d8d9 47be 26ad 98bc
000002a0: c971 403e e2a7 683e 1cd0 b0bd 89ab 6b3d
000002b0: a4d7 1bbd 1e43 563d 57e2 af3d 3ca4 063e
000002c0: d558 0b3e ee99 8bbc 4c8c bfbc c39f 963e
000002d0: 339c 6d3d 7fcc 8a3e 1163 d4bc 24e4 8c3d
000002e0: 4d83 fcbb b14d d13d d9a8 b5bc 9669 533e
000002f0: 0056 043e 4cc4 62bd f8ee 47be f6f6 7f3b
00000300: 05ef b1bc eb42 cdbd 9793 f23d bdcc 3ebe
00000310: c03b 8cbd 0eaf 0c3e ff15 303e 54c3 0d3e
00000320: 6fa4 b63d 362b b83d 01e1 dc3d 7616 553e
00000330: 2c1d 6a3d 487a 8a3e 944c 74be e424 89bd
00000340: d1db 9c3d 3263 623e 64af fabd c2e6 01bd
00000350: 97af abbd 1b3d 863e 32a7 53be e351 a6bc
00000360: 260b 70be 9024 6ebd 3df7 aabd c0dd 8bbe
00000370: 55b2 96be 16c2 3d3e e3a2 583e dafc 3b3e
00000380: 0567 1bbc 70a5 c1bc d777 a03e 2f73 213e
00000390: bf7b 94bd 008a 173d 2463 bdbc 950d 01be
000003a0: d77b ba3d 30a8 3abd 3540 173e 0fa2 d8bc
000003b0: 5ed2 043e 9eed bb3d 89b8 ba3d 7840 013e
000003c0: 8626 f03d 3c92 febc 35c9 cfbd 58b5 84bd
000003d0: 5446 08bb ecba 58bb 9fc7 a2bb 0296 b23e
000003e0: bf0f c73d 760b 993d 2dbb 83bc a18d 403e
000003f0: d3a1 86bd 9a12 2abe 73f9 063e 8abe 34be
-0.0025364798 -0.19265996 0.035369996 0.010458795 0.12502144 -0.30481148 0.34376505 0.07641836
-0.15087216 0.013913005 -0.26500675 -0.06897964 -0.070506595 -0.037074726 -0.052465133 0.08129306
0.03979173 0.04083923 -0.07055754 -0.019146495 0.088708445 0.0125327185 -0.06358584 0.16347277
-0.19222485 -0.16024491 0.007918209 -0.09833335 -0.12041058 0.053212244 0.07550106 -0.060424462
0.13398017 0.16723277 0.16620007 -0.057256404 0.06325533 0.18120499 -0.21212125 0.07310632
-0.11713021 -0.01853586 0.014476949 -0.1268879 -0.0073373606 -0.008696602 0.3539933 0.29317376
0.22873874 0.19880727 0.14546004 0.07729463 -0.23252457 0.059181977 -0.114945926 -0.08732278
-0.22556631 0.0089280745 -0.07618201 -0.16119927 0.11210345 0.016983036 0.16081272 -0.14165086
-0.20558277 0.0092895 0.020626254 -0.20944503 0.0015689178 0.04818898 0.11793248 0.27974114
0.08748231 -0.10687145 -0.10378608 0.14588024 -0.13132343 0.09827122 -0.08518212 0.06781863
-0.11199681 0.14879277 -0.19766846 -0.0452651 0.121599756 0.086543776 -0.04482518 0.048152696
-0.14065996 -0.058189645 -0.030653171 -0.1035682 -0.16477144 0.037414104 -0.1393988 0.16826884
0.18215065 0.05877908 0.089258894 0.21144143 -0.20524754 0.18399823 -0.18105248 -0.106078014
0.056934282 -0.1982292 -0.15938096 0.11365796 0.27392873 0.18671034 -0.037675716 -0.09467707
0.07119122 -0.27277702 -0.10678229 0.12146201 0.053452946 0.11766888 -0.09949984 0.08888915
0.13405363 0.09205216 -0.20019615 0.072739586 0.07335099 0.008057129 -0.07119827 0.08277104
-0.06330946 -0.03121901 0.21763498 -0.24391648 -0.07932478 -0.17841244 0.020677796 0.0025307878
-0.036904052 0.1339182 -0.04866802 -0.20341158 -0.12745999 -0.15226522 -0.08962348 -0.021545159
-0.050313868 -0.1975276 -0.13534741 -0.062291455 0.004609127 -0.07223886 -0.26771006 0.4618361
0.15835473 -0.17501831 0.405929 0.01709813 0.31636357 -0.00353322 0.065370284 0.06712723
-0.08961458 0.19903018 0.1071404 -0.13008766 0.063790366 0.086642444 -0.19516695 -0.018637251
0.18793406 0.22720292 -0.08633444 0.057536636 -0.038047448 0.0523101 0.08588093 0.13148588
0.13608105 -0.017041173 -0.023382328 0.29418764 0.05801029 0.27109143 -0.025926145 0.06879452
-0.007706082 0.102198966 -0.02217524 0.20645747 0.12923431 -0.055362985 -0.19524753 0.0039057112
-0.021720419 -0.10022529 0.11844557 -0.18632789 -0.06847334 0.13738653 0.17195891 0.13844043
0.08918082 0.08992617 0.107851036 0.2080935 0.057156727 0.27046418 -0.23857337 -0.066964895
0.07659114 0.22108153 -0.12240484 -0.03171421 -0.083831005 0.26218495 -0.20669249 -0.020302719
-0.23441753 -0.058140337 -0.08347938 -0.2731762 -0.29432932 0.18531069 0.21155886 0.18358174
-0.009485011 -0.023638457 0.3134143 0.15766595 -0.07250165 0.03699684 -0.023118563 -0.12602837
0.09105652 -0.045570552 0.14770587 -0.026444463 0.12970874 0.09176181 0.091172285 0.12622249
0.11726098 -0.03107559 -0.10145799 -0.06479901 -0.0020793872 -0.0033070398 -0.0049676443 0.34880072
0.097198 0.07472889 -0.016080463 0.18804027 -0.06573834 -0.16608658 0.13181095 -0.1765081

lstm.bias_ih_l0 f4 [512]
00000000: fe42 fbbd cd85 363e 423c b83d 0c2d e1bd
00000010: 5140 d5bd 9d77 8ebc c81c c6bc d5fb 0cbe
00000020: d8d0 9bbd 12ce 29be 64cd ddbd a243 ccbd
00000030: 23aa 3fbc fcaf 9dbd 54bf 91bd 7bca ef3c
00000040: 5a98 04be 793d aebd b7f5 24be afae 11be
00000050: a92b 32bc 94dc c4bd b587 7abe 0450 013e
00000060: ef32 55be a00d a7bd 084f 0abe e373 fc3d
00000070: 2d50 10be 7b95 ffbd e475 88bd 740c 3dbe
00000080: 57ed 9e3c 0f21 49bd 13dc b13d 27aa 0fbe
00000090: 60e9 0dbe cbfe 7dbe e553 253d 53b9 ab3d
000000a0: d85b 86bd 4d69 a73b cea9 bebd 2e0d 7d3c
000000b0: 373f d3bd 2cff 0bbe 7464 133b ea8e 603d
000000c0: 2fc9 f4bc 50fc 1dbe f789 4abd 0278 5f3c
000000d0: f57f 3fbd 50aa e5bd aff9 913c aa2d 0abe
000000e0: 9db7 ba3d c0ac 2abe 5941 203e daa9 e3bd
000000f0: 7e39 123e 7105 38be caae cb3d 4ea0 3dbe
00000100: 9a14 a73c 74b0 08be ed65 bd3c d4ef 043b
00000110: ae60 923d 0f2a 50be 0234 81bd 1c22 edbd
00000120: 2d75 863c 61b4 8ebd 3871 003d 4cd9 e2bd
00000130: f004 6fbc b217 1bbd 9d1e 62be daf1 febd
00000140: 15f5 a4bd bf52 ffbc f29c 743d 3543 97bd
00000150: 8ec8 b2bb 0c40 53bd 1b88 7abd 5826 083e
00000160: 0562 ae3d b259 883d 7009 9f3d b59d 79bd
00000170: ddfc 35bd 185e d4bd 0ce7 efbd c457 1bbe
00000180: 96f0 08bd 28f9 e6bd 246b c8bd 34c7 823d
00000190: 7048 ebbd bcee a2bd abb6 04be 4f44 3b3d
000001a0: d37c a1bd 3f70 7cbd d8e9 043d e306 1d3c
000001b0: 63dc 573d d1ec 07bd c9a3 23b7 d803 f2bd
000001c0: ed83 5ebd b3f2 953d c236 b9bd 4169 d4bd
000001d0: 39ff b7bd 1ff9 51be ae0d f0bd 5dfa b0bd
000001e0: e1d7 11be 9288 613b 2760 b7bd b94b 9ebd
000001f0: cc1f 1dbd 9e2f 80be 55d7 15be 4d8a 66bd
00000200: 763e 33be e20a 3a3e ef1b 873d decc a3bc
00000210: 79cd 12bd 6610 02bd abf8 fcbd 0a39 76bd
00000220: 1841 323d 98f5 72bd a510 47bd be7a ba39
00000230: ff66 b03d be3d 463e 65f7 1d3d 1e98 2d3d
00000240: e9d1 bcbd 6ae6 c8bd c4be 00be 47b8 4d3d
00000250: 2929 993d 1c0d 3bbd ba19 e3bd 3856 fabd
00000260: 3f3f 48be 0f23 db3c 5798 0bbe dce3 14be
00000270: 0e0d 40bc a5ae 593d 286e 8ebd 149f 10be
00000280: dedb fabd 4f4e f7bd b3c6 b63b 1726 22bc
00000290: bdc6 1cbe 1029 8cbe db66 e3bd 3ae1 ef3d
000002a0: 7947 65bd 24f2 783e 3010 873d 7a0f 633d
000002b0: d586 123d 06be 94bc 77f0 82bd d668 6dbd
000002c0: 3c52 45bd d519 3ebe a6b7 053e 966e a93c
000002d0: c9ea 2abe 0952 f93c 68be 93bd 1cae 3ebe
000002e0: ea50 61bd 8056 35be f989 d63d 0ced ac3d
000002f0: 6f23 f9bd 446d 16be b489 7d3d 473c 4cbe
00000300: e9f1 15be 8784 98bd bc15 d8bb fecf acbd
00000310: d860 8f3d 85db cbbd 5a3b 563d 4fcf 683d
00000320: ed23 1fbe 5d1c 5ebd af17 36be 11d2 1f3d
00000330: bc08 83be d615 933b cd67 09bd 4ada 4cbe
00000340: 2b83 34bc 396f 8c3d 5b57 88bb 0924 ac3d
00000350: 471f 22bd 897a 97bd 5b37 02bd f83a 1c3e
00000360: 8358 b73d 2b78 903b 6ead f2bd e63b 8f3d
00000370: ba0b a23d 8d5a f4bd 999f 043e 3a16 783d
00000380: f5dd e1bc b3ec 45be 51d5 cebd 42f8 9d3d
00000390: aa16 10be 97f1 763d e1b5 9a3d 6393 ddbd
000003a0: 1c80 d1bd a8f7 9ebd 044a 33bd 1cab 7c3d
000003b0: f3c6 463e d055 3bbc 5d2b a53d eb57 2abe
000003c0: 17b4 8bbd 24d4 933d 26d5 1cbd 6cb6 0abc
000003d0: f447 7a3d bb13 e4bd 6d94 903c 0a37 a4bd
000003e0: 4f97 bbbd 8813 77bd b02c 4cbe eb5a 46bd
000003f0: 369d 1c3d 70b2 7ebe 4255 68bd 0161 77bd
-0.12268637 0.17824478 0.08995868 -0.1099492 -0.10412658 -0.01739102 -0.024183646 -0.13767941
-0.07608193 -0.16582516 -0.10830191 -0.099738374 -0.011698279 -0.07699582 -0.07116571 0.029271355
-0.12948743 -0.08507819 -0.16109358 -0.14226793 -0.010874667 -0.096123844 -0.2446583 0.1262818
-0.20820211 -0.08156896 -0.1350671 0.12326791 -0.14093085 -0.12479683 -0.06663111 -0.18461782
0.019400282 -0.049103793 0.08684554 -0.14029752 -0.13858557 -0.24804227 0.04036321 0.08384957
-0.065604866 0.0051089884 -0.093097314 0.015445037 -0.10314792 -0.13671559 0.0022490295 0.054823793
-0.029881088 -0.15428281 -0.04944798 0.013639452 -0.04675289 -0.11214125 0.017819254 -0.13493982
0.09117053 -0.16667461 0.15649928 -0.11116381 0.14279744 -0.17970826 0.09945448 -0.18518183
0.020395566 -0.13348562 0.023119891 0.002028455 0.071473464 -0.20328544 -0.06308748 -0.115787715
0.016413296 -0.06967998 0.031357974 -0.11076602 -0.01458858 -0.037864394 -0.2208199 -0.12448473
-0.08054558 -0.031167386 0.059719987 -0.073858656 -0.005456037 -0.05157475 -0.061164957 0.13295877
0.085147895 0.06657733 0.07765472 -0.060941417 -0.044430602 -0.103695095 -0.117139906 -0.15170199
-0.033432566 -0.112779915 -0.097860605 0.06385651 -0.11488426 -0.07955691 -0.12960307 0.04571944
-0.078851365 -0.061630484 0.032449573 0.009584161 0.05270041 -0.03318483 -9.753691e-06 -0.118171394
-0.054325033 0.07321682 -0.09043647 -0.10371638 -0.08984227 -0.20505188 -0.11721359 -0.08641503
-0.14242508 0.0034413678 -0.089538865 -0.07729287 -0.038360402 -0.2503633 -0.14632924 -0.056284238
-0.17504296 0.18168214 0.06597125 -0.01999515 -0.035840485 -0.03175392 -0.12352117 -0.06011299
0.04351911 -0.059316248 -0.048599858 0.00035568135 0.08613395 0.1935949 0.038566012 0.0423814
-0.09219725 -0.09809573 -0.12572771 0.05022457 0.07478554 -0.0456668 -0.11088891 -0.12223476
-0.19555376 0.026750116 -0.13632332 -0.14540046 -0.0117218625 0.05314507 -0.069546044 -0.14123183
-0.122489676 -0.12075483 0.005577886 -0.009896777 -0.15310188 -0.27375078 -0.111036025 0.117128804
-0.055976365 0.2431112 0.065948844 0.05543468 0.035773117 -0.018157016 -0.06393521 -0.057961307
-0.048174128 -0.18564542 0.13058338 0.020682614 -0.16691126 0.030434625 -0.072140515 -0.18621105
-0.055008806 -0.17708778 0.10475535 0.084436506 -0.121649615 -0.14690119 0.061898902 -0.19944869
-0.14643063 -0.074471526 -0.006594388 -0.08438109 0.07000893 -0.099539794 0.052302696 0.05683833
-0.15541048 -0.054226268 -0.17782472 0.039018694 -0.255926 0.004488687 -0.033546258 -0.20005146
-0.011017601 0.068571515 -0.004160804 0.08405311 -0.03958061 -0.073964186 -0.031791072 0.1525687
0.08952429 0.0044088564 -0.11849485 0.069938466 0.07912393 -0.11931334 0.12951507 0.060568072
-0.027571658 -0.19328575 -0.100992806 0.07713367 -0.14071146 0.06028899 0.07554222 -0.108191274
-0.10229513 -0.077620804 -0.04377176 0.06168662 0.1941183 -0.0114340335 0.080649115 -0.166351
-0.06821459 0.07218197 -0.03828921 -0.008466344 0.061103776 -0.11136576 0.0176489 -0.0801831
-0.09159719 -0.06032136 -0.19938922 -0.04842655 0.038235866 -0.24872756 -0.056721933 -0.060395245

lstm.bias_hh_l0 f4 [512]
00000000: 8213 8cbd 8357 043d b12e f7bb c28c b73c
00000010: 519f 39bd 5a47 2dbd 459a b23d 5aa2 47be
00000020: a085 9dbd 3f35 6dbe 3cef aabd f2ab 55be
00000030: 5321 1ebd 5be1 33bc 130b 0bbd c237 fb3c
00000040: 8a65 18be 342a 4dbd 8834 42be 5258 e1bd
00000050: ea06 84bc 400f e7bd 592d 9fbe 5ea1 f73d
00000060: dfff 33be c862 ec3c 7c0a 39be 5987 973d
00000070: db21 d2bc 6cbd 03bc 2915 07be bcc3 28be
00000080: 836c a6bd 68a3 04be 6686 973d 629b 1dbe
00000090: 939e babd 95b3 0dbe 823a 22bd 2d92 7bbd
000000a0: cbaf 8cbd 9f1d c93c 3b52 3bbe be3e 94bd
000000b0: 1556 4fbe cca5 4bbd 985e bb3c 73c7 dd3d
000000c0: 4e81 70bd 5f0e edbd 568b 52bd c551 c5bd
000000d0: 5889 3bbd 3993 51bd 738b 9ebd 42d9 1fbe
000000e0: 5dd5 4b3d c76e 14be a96a 473e d50e a6bd
000000f0: 6e95 6d3d 290f 56be 4a54 063c 5e37 27be
00000100: efcb 44bd 6bbb 5ebe 074b f9bd 56eb 83bc
00000110: 0515 79bd 4434 20be 85ba ecbd 9267 75bd
00000120: 4b4c 12be eaf9 50bd daff b1bd 316e 00bd
00000130: 5c29 b9bc 9165 64bd 63ce 6fbe 6a4b 13be
00000140: 0102 a7bd 6a4e 53bd 9d79 a83c dea5 6cbd
00000150: d31f 66bd 5e15 c6bd 9c1e 1ebd c4d3 043e
00000160: b1ab 0d3e 8aba bdbd 412a 373d d651 1cbe
00000170: c52d 91bd b758 a7bc 4ff0 03be 993b 8fbc
00000180: 9d16 85bd 0d2b bd3b 2397 3dbe 73ec 06bd
00000190: c449 19be 395a d5bd cc49 16be c1e0 87bc
000001a0: ff7e 62be b1e0 a73c abdc 1abc d5b4 d4bd
000001b0: d07f 563d c598 3fbd 40e4 fb3c 308d 10be
000001c0: 649b 55bd 1ac8 9d3c f686 3cbe 6848 94bd
000001d0: b4fa 323c 4335 d3bd e427 c5bd 55e8 a2bd
000001e0: e4a0 8bbd 1927 e9bd 08d9 dfbd 7bcf c2bd
000001f0: d0b0 d5bc c638 8dbe 8beb f1bd 3ac6 36be
00000200: e2f9 35be bd51 cc3d b66e 443d d62d 51bb
00000210: a910 8bbd c783 7abd 1e51 13bd 395d 31bd
00000220: 78b6 d7bd 7f7b 64bd 996c e8bc 56c2 47bd
00000230: aa06 243d 5a7c eb3d 5f8c a1bd 18b1 df3c
00000240: 49e3 0fbe 2847 483d 5f1a dfbc 6147 af3d
00000250: 800c aa3b 9e38 a9bd a046 42be 233d e1bd
00000260: 965f 18be 4101 7c3d 7d88 85bd 473e aebd
00000270: f8e4 c5bd a63c 663d 4afe 29be 7e7e d3bd
00000280: 3e39 27be 2a99 19bd 8606 57bd ce05 9abd
00000290: 9ab5 fcbd aac1 82be e227 173d 987a 293d
000002a0: 40b7 f43c 9786 203e 0251 80bd 01d1 2abd
000002b0: bda0 0e3d ff1b 753c 84b8 8c3d 4f64 debd
000002c0: 7b0c 2d3c b114 20be 1fa0 cf3d 1d7e 6e3d
000002d0: b206 19be c408 e43c 5518 2dbe 9494 40be
000002e0: 96d1 2f3d e68b 86be 2301 3bbd 21b0 563d
000002f0: 5ea4 81be 92d9 42be 4b61 383e 048d 32bd
00000300: b54c 30be 55c5 29bc c0a4 93bc cc92 5f3c
00000310: 4fad 033e 1734 44be 422a 1bbd 8a83 423d
00000320: c200 74be d58b 10bc 0e22 3fbe f5bd 10bb
00000330: e330 93be be40 b83c 6b76 40bc bc96 90be
00000340: c262 c1bc 2e90 a33d bd1d eb3b 045a 933d
00000350: f867 0abe a9e7 34bd d7cc c3ba 8660 da3d
00000360: 7dd3 a33d 664d 483d eadf e3bc f2eb aebd
00000370: ab1e 673d 6c51 85bc 2169 6f3c a9e6 dbbc
00000380: 93cf 12be 8b23 d0bd 8a4d e4bd 2185 7a3d
00000390: 85ac bcbd 9bad b03d 85c3 92bd 647f 84be
000003a0: e735 143c 83e6 dcbb f5b8 0f3d b874 403d
000003b0: 30c8 753e 4bbc 0abd 90c7 ea3a b5a3 2abe
000003c0: c6ca 0cbe 8d65 d73c 21db 6ebc bcbb 51bc
000003d0: 5d89 403e 416c d3bb 4580 3e3d 7e7a 27be
000003e0: 3acf 293c a1fb bbbc 52ec 62be 9aaf a5bc
000003f0: 249d 83bd ca93 1dbe 8ca4 80bc be0a a4bd
-0.06839658 0.03231002 -0.007543408 0.022405986 -0.04531795 -0.042304374 0.08720831 -0.19495526
-0.076915026 -0.23164843 -0.083464116 -0.20866373 -0.038606 -0.010979022 -0.033946108 0.030666236
-0.14882484 -0.050089076 -0.18965352 -0.11003174 -0.016116578 -0.112822056 -0.31089285 0.12091325
-0.17578076 0.028855696 -0.18070406 0.073988624 -0.02565091 -0.008040767 -0.13191666 -0.16480917
-0.08126166 -0.1295296 0.07398681 -0.15391305 -0.09112277 -0.13838036 -0.03960658 -0.0614187
-0.06869467 0.024550257 -0.18293087 -0.072385296 -0.20247681 -0.049718663 0.022872254 0.108290575
-0.058717065 -0.11575007 -0.051402412 -0.09634737 -0.045785278 -0.051165793 -0.077414416 -0.15610221
0.049764026 -0.14495383 0.19474281 -0.08108298 0.058003835 -0.2090422 0.008198807 -0.16329715
-0.04804605 -0.21751182 -0.121725135 -0.016103428 -0.06081106 -0.15644938 -0.11559013 -0.059913225
-0.14286916 -0.051019587 -0.08691378 -0.031355087 -0.02260273 -0.055760924 -0.23418574 -0.14384237
-0.08154679 -0.051588453 0.020565802 -0.05777537 -0.056182694 -0.09672044 -0.03860341 0.12971407
0.13835026 -0.09264095 0.04471803 -0.15265593 -0.07088808 -0.020428045 -0.12884639 -0.017484473
-0.06498454 0.0057729543 -0.18514685 -0.03294034 -0.14969546 -0.10417599 -0.14676589 -0.016586663
-0.22118758 0.020492883 -0.009452025 -0.103860535 0.052367985 -0.04677655 0.030748487 -0.14116359
-0.052150145 0.019260455 -0.18410859 -0.07240373 0.01092403 -0.10312893 -0.09626749 -0.0795447
-0.06817797 -0.113844104 -0.10930067 -0.0951223 -0.026085287 -0.27582377 -0.118125044 -0.17849055
-0.17771104 0.09976528 0.047957145 -0.003191819 -0.06790287 -0.06116083 -0.03596603 -0.043301795
-0.1053285 -0.055781838 -0.028372096 -0.048769318 0.040045418 0.114983276 -0.07888102 0.027306125
-0.14051546 0.048895985 -0.027234254 0.08558536 0.0051894784 -0.08262752 -0.18972254 -0.10997989
-0.14880213 0.061524633 -0.06520174 -0.08507972 -0.09662813 0.056210183 -0.1660091 -0.10326861
-0.1633043 -0.037499584 -0.052496456 -0.075206384 -0.12339325 -0.2553838 0.03690327 0.04137668
0.029872537 0.15676342 -0.06265451 -0.041703228 0.03482126 0.014960288 0.06871131 -0.10858976
0.010562058 -0.15632893 0.101379625 0.05822574 -0.1494396 0.027836211 -0.16903813 -0.18806678
0.042924486 -0.2627861 -0.04565538 0.052414063 -0.25320715 -0.19028309 0.18005864 -0.043591514
-0.17216761 -0.010361989 -0.018022895 0.013645839 0.1285908 -0.19160496 -0.037882097 0.047488727
-0.23828414 -0.008822401 -0.18665335 -0.002208588 -0.28748235 0.022491809 -0.011746983 -0.2824
-0.023606662 0.079864845 0.007175176 0.071949035 -0.13516223 -0.04416624 -0.0014938366 0.10662942
0.079993226 0.048901938 -0.027816731 -0.08541097 0.05642573 -0.016274177 0.014612467 -0.026843386
-0.14336996 -0.10163029 -0.11147602 0.061162118 -0.09212593 0.086268626 -0.07166199 -0.2587844
0.009046054 -0.0067413463 0.0350885 0.04698631 0.24002147 -0.033870976 0.0017912257 -0.16664012
-0.13749227 0.02629354 -0.014578612 -0.012801107 0.188024 -0.006452114 0.046509046 -0.16355321
0.010364348 -0.022947134 -0.22160462 -0.020225335 -0.064264566 -0.15388408 -0.015703462 -0.080098614

attention_net.0.weight f4 [128, 128]
00000000: 6ba1 183e 8ffb 77be e6a7 2c3e 1eaf 5c3d
00000010: 161c 1d3e a639 54be 8f0d bd3e 2f3a a93b
00000020: 05ca 76bd 2de0 f2bd 13ec 16be 87d6 95bd
00000030: 2f07 90bd 1307 0abd 23d6 393d 363a a6bd
00000040: 9132 6c3d bda2 843e 609a 843e 3b29 fabc
00000050: c92f 5d3e 15b8 e43d 1fdd 4e3d 93a3 84bd
00000060: a5e6 d33c ad9f ac3c 5646 ba3d ffb4 13bf
00000070: 617f 81be a1f2 fe3d cb12 c1bd ed01 0a3e
00000080: f81b 1a3d 90ec 893b 1775 3dbe c146 103c
00000090: 07a2 d4bd 14a5 a6be d5ff e63d 7b12 26bd
000000a0: 52dd c3bc 2712 b13d 9087 4a3d 7c32 c6bd
000000b0: 6e15 9abc 9a7a 8bbd 44fc 7cbd 4b8f d1bd
000000c0: 62b0 4dbe 3411 ca3e cbfe 563b 7129 9dbb
000000d0: 52e1 5bbe 9cfb d1ba d66a 873e 5a0c b6bd
000000e0: f91e 25be ff49 df3d 8c60 3b3e fcea d6bd
000000f0: 61d9 cc3e 2615 333e 47c2 4b3e b437 f33d
00000100: 6ac2 aebd e9de fabd 81fd ed3b 663e 0e3e
00000110: 18a0 91be 594d 8cbd 17cb e63c e765 25be
00000120: e246 02be d046 b63d 88cc 903e 9559 113e
00000130: 0bbe 61be 0e3c 99ba 84df 333d 59fe 4ebe
00000140: 9c5d f6bd 085a c53c 8593 f53c 737b 72bd
00000150: 1d3f 5cbc e2df 22bd 4ad0 133c f99f 1dbe
00000160: 22c8 7cbe 6735 14be 7a9b be3b 60ba f53c
00000170: 8450 073d e8b7 543d 83ec c93d 4212 7e3d
00000180: e682 5d3e ac8a 303d e7b8 67be 87e6 523d
00000190: a661 453e 6a75 ddbc f8b9 5bbd ddb4 4e3e
000001a0: 9523 4abe 8645 d3bd 6da1 39be 90cd 9c3e
000001b0: 4d7d e83e dad5 1e3e eb07 053d 3f79 21bd
000001c0: fb37 77be 7134 b1bd 8f6c 203d f9d3 283e
000001d0: fd12 e5ba 86a6 f7bc 4aeb 69be 20d4 6bbd
000001e0: 9896 72ba 943f 1b3e d898 013f 75ca 67be
000001f0: b7a1 9d3d 2fe1 10be 6946 60bd e275 393d
00000200: 2967 603d b638 fcbd 7ce0 a83d 12d7 b83d
00000210: 425e f13d 6895 5ebd fe7f 833e b43e b7bd
00000220: 8adb 2cbd 09d3 09be 6b02 02bc f90d a93d
00000230: e028 e53c 24e8 babc f27c 8f3d cf3a 823c
00000240: cd98 9c3c 1bde f73d 9011 423e 4408 7cbb
00000250: bfe4 1d3e 40a4 e33c edf3 d6bc f222 05be
00000260: 8c40 9abd 13f4 f93c 4b4e 8f3d 16c9 04bf
00000270: 349c 3bbe 1c4d 1d3e 5e94 b7bd cc0f 013d
00000280: f72e bcbc 8145 233c 8668 afbd 6ad3 593c
00000290: dca1 8cbc 13a1 72be 2ce7 f13c 1f42 003d
000002a0: 2df0 883c c9b0 203e 0c02 b2bb 0505 b8bd
000002b0: c724 a63c e6be c3bc fe5a ec3c 581c 70bd
000002c0: 629c 4fbe cf5d a83e 6a98 b6bd bf95 ba3c
000002d0: 8e27 0abe 8911 3abd ab96 903d a799 ee3c
000002e0: 3254 cabd caee b1bd 4f33 3b3e f347 dc3c
000002f0: b269 9e3e a522 133e 96ee 0b3e 5f1d 3e3d
00000300: a348 3c3c 6cd0 6e3d 9eeb 043d c607 173e
00000310: 930c 87be 2271 34be 619a bdbd 7a35 2dbd
00000320: c15d 46bd a756 0a3d 2f0d 503e 2d0e 083d
00000330: ce32 45be 0497 86bd 9c2c fbbc b3a3 9dbd
00000340: 6e7d 9abc ffad b3bc 9985 66bd 9371 82bd
00000350: 0466 0cbe 1795 c7bd 30f0 413d 9619 6dbe
00000360: 40ff 7abe 5015 e6bd c016 d7bd 322a 113e
00000370: 2da8 1d3c 2c69 a23d 08a7 e93d cac5 193e
00000380: dc79 923e 6066 3cbd e80c 1dbe e985 aa3d
00000390: 5a60 283e 458d e3bc 399a 29bd ab1f 563d
000003a0: fb7b 1bbc 409c f1bd 82ff 11be 8148 833e
000003b0: 2895 013f 617e c93d 8156 353d 704d 29bd
000003c0: 85de 32be 524e 053d cf3f 743d 9ddc 59bc
000003d0: 9545 27be 9ece 55bd de73 64bd cfdd b43c
000003e0: 8552 bb3d a009 e63b 0f7a d83e 5108 c9bd
000003f0: 5ce8 b43c f77b 25bd 9d55 1fbe 5b69 1539
0.14905326 -0.24217056 0.16860923 0.053877942 0.15342745 -0.20725116 0.36924407 0.0051644067
-0.060251255 -0.118591644 -0.14738493 -0.073163085 -0.0703262 -0.033698153 0.045370232 -0.081165716
0.05766541 0.2590541 0.2589903 -0.030537238 0.2160026 0.11167923 0.050503846 -0.06476512
0.025866816 0.021072233 0.09095447 -0.57698053 -0.25292495 0.124486215 -0.094274126 0.13477297
0.03762433 0.0042091087 -0.18501697 0.008805932 -0.10382467 -0.3254782 0.11279265 -0.040544968
-0.023909245 0.086460404 0.04944569 -0.09677598 -0.018809047 -0.06810494 -0.061764017 -0.10232409
-0.20086816 0.3946625 0.0032805677 -0.0047962 -0.21472672 -0.001602042 0.26448697 -0.088890746
-0.16125096 0.109027855 0.18298548 -0.104940385 0.40009597 0.17488536 0.1989833 0.11875859
-0.08533175 -0.12249548 0.007262886 0.1389099 -0.28442454 -0.068506904 0.028173013 -0.16152154
-0.12722352 0.08900225 0.28281045 0.14194329 -0.22045152 -0.0011690871 0.043914333 -0.20214213
-0.12029573 0.024090782 0.02997757 -0.05919976 -0.013442782 -0.039764293 0.009021828 -0.15393056
-0.2468572 -0.14473496 0.005816874 0.029996097 0.03303577 0.0519332 0.09859564 0.06202913
0.21631965 0.043100998 -0.22629128 0.05148938 0.19275531 -0.027033526 -0.05364415 0.20186181
-0.19740136 -0.10315995 -0.18127985 0.30625582 0.45408097 0.15511265 0.032478254 -0.03942227
-0.24142449 -0.086525805 0.03916603 0.16487111 -0.0017476972 -0.030230772 -0.22843662 -0.057575345
-0.00092540076 0.15160972 0.50623846 -0.22635825 0.0769686 -0.141484 -0.05475465 0.045278437
0.05478588 -0.12315504 0.08245942 0.090253964 0.117855564 -0.054341704 0.25683588 -0.089475065
-0.042201556 -0.1345941 -0.007935147 0.08254618 0.027973592 -0.022815771 0.07006253 0.015897183
0.01911583 0.1210291 0.18952012 -0.0038457075 0.15419291 0.027788281 -0.02623936 -0.13001612
-0.075318426 0.030511891 0.06997355 -0.5186933 -0.18321306 0.15361446 -0.08963846 0.031509206
-0.022971613 0.0099653015 -0.08564858 0.013295034 -0.017167024 -0.23694257 0.029529177 0.031313058
0.016716087 0.15692438 -0.005432373 -0.089853324 0.020281209 -0.023894738 0.028851982 -0.05862078
-0.20274499 0.3288407 -0.089157894 0.022776483 -0.13491651 -0.04542688 0.07059988 0.029126002
-0.0987934 -0.086881235 0.18281291 0.026889777 0.30940014 0.14368685 0.13665232 0.04641473
0.011491927 0.058304235 0.032451265 0.14749059 -0.2637678 -0.17621282 -0.09257961 -0.042287327
-0.048429254 0.033774044 0.20317529 0.033216644 -0.19257662 -0.06571773 -0.03066092 -0.07697239
-0.018858638 -0.021933554 -0.056279752 -0.06369319 -0.13710791 -0.097452335 0.0473482 -0.23154292
-0.24511433 -0.11234534 -0.10502386 0.14176252 0.009622616 0.07930216 0.11408812 0.15016857
0.28608596 -0.04599607 -0.15336955 0.083263226 0.16443005 -0.027777323 -0.041406844 0.052276295
-0.0094900085 -0.117973804 -0.14257625 0.25641254 0.5061822 0.09838558 0.04427195 -0.041333616
-0.17467697 0.032545395 0.059631165 -0.013297227 -0.16335137 -0.052199 -0.055774562 0.022078423
0.09146599 0.0070201904 0.42280623 -0.09816039 0.022083454 -0.040401425 -0.15560003 0.00014248995

attention_net.0.bias f4 [128]
00000000: bb5a 773e 1059 233e 2b9c 3cbe bbb2 843e
00000010: b248 843e 23be 903e 6c2a e83e 42e9 033e
00000020: 0d8d 623e 7168 8bbe ad7f 48be df12 7d3e
00000030: 7568 6f3e d514 85be 35e2 913e 4fca 4f3e
00000040: ea36 62be d808 6d3e e2d3 7bbe b568 1dbf
00000050: 25e3 963e dbdd 83be 83b0 923e ac82 2cbf
00000060: 92aa 8b3e 9c23 463e 8ce8 6d3e 3cec 97be
00000070: ae4d 6abe 7c63 9b3e 8266 0fbe 2b2f 8d3e
00000080: 0fd3 5abe 1c63 b23e e859 a03e 8290 6ebe
00000090: 3d42 803e 7e3a 863e 7c19 6c3e 76cf 5dbe
000000a0: 4498 863e f345 623e 1540 153f 0d2b 853e
000000b0: 795b 89be 47db 65be 6ab9 3f3e bd99 4fbe
000000c0: 0df6 85be 730d 863e 88cd 40be 34a6 733e
000000d0: 1213 15bf 2e9e 3cbe 6255 81be d556 5bbe
000000e0: f096 733e b9d5 a13e c6e3 1e3f 0f77 893e
000000f0: 9d34 853e 5a18 8c3e 41ed 6a3e a206 6dbe
00000100: 684c 5c3e 7487 58be 3895 68be 2813 763e
00000110: 8d69 593e 85ea 3a3e 19ee a23e 6cc1 623e
00000120: 47ee 413e 967a 6c3e a4ce 8e3e c719 813e
00000130: 27be 703e bb6e 09bf 45bd 823e 8e16 4e3e
00000140: 8788 5dbe 716e 593e 60a7 ac3e 0666 b13e
00000150: 606e 86be e28a 413e bdeb 103f 990c 55be
00000160: 36c2 3abe 1430 8c3e 1ff5 56be 97b5 4e3e
00000170: 6b3e 5c3e 2347 a2be 306b 093f 6972 98be
00000180: c59d 57be a788 0f3f cdfb 88be db05 8bbe
00000190: a95a bbbe 736b 84be 28c2 79be f7f4 75be
000001a0: a5dd 95be fd82 86be f39a 943e eeb1 8fbe
000001b0: 162a 793e 23ba 4b3e 6d46 223e 8698 a53e
000001c0: 94ce 7fbe 0d4a 90be 08ae 46be 93bd b53e
000001d0: d18a 783e a4d8 8b3e 209f 17bf 4ec5 4a3e
000001e0: 8aab 633e 356c 463e 1a9f 353f e043 d73e
000001f0: 946c 3abe 5c44 6e3e 01e8 7b3e bc25 603e
0.24155705 0.15951943 -0.18418948 0.2591761 0.25836712 0.28270063 0.45344865 0.1288195
0.22124119 -0.2722812 -0.19579954 0.2471423 0.23379691 -0.25992456 0.28492895 0.20292018
-0.2209126 0.23147905 -0.24592546 -0.61487895 0.29470173 -0.257552 0.28650293 -0.6738689
0.27278572 0.19349521 0.23233241 -0.2967242 -0.22881195 0.30349338 -0.14003947 0.2757505
-0.21369575 0.3484124 0.31318593 -0.23297313 0.25050536 0.262165 0.23056597 -0.21661171
0.26288044 0.22096996 0.58300906 0.26009408 -0.268276 -0.22446929 0.18723074 -0.2027349
-0.26164284 0.26182136 -0.18828404 0.2379387 -0.58232224 -0.18419716 -0.25260454 -0.21419843
0.23788047 0.3160837 0.62066305 0.26848647 0.26016703 0.2736233 0.22942068 -0.23147061
0.21513522 -0.21145421 -0.22713172 0.24030745 0.2123167 0.18253525 0.3182228 0.22144097
0.18938552 0.23093638 0.2789203 0.2521498 0.23510037 -0.53684586 0.25535026 0.20125791
-0.21634112 0.21233536 0.33721447 0.3464815 -0.26256084 0.18900636 0.5660971 -0.20805587
-0.18238148 0.2738043 -0.20991944 0.20186459 0.21508186 -0.31694898 0.5367918 -0.29774788
-0.21056278 0.5606789 -0.2675461 -0.27152905 -0.36592606 -0.25863227 -0.24390471 -0.24019228
-0.29270664 -0.2627181 0.29024467 -0.28065437 0.24332461 0.19895224 0.15847178 0.3234293
-0.24981147 -0.28181496 -0.19402325 0.35496196 0.24271704 0.2731372 -0.5922718 0.19801828
0.22233406 0.19377215 0.70945895 0.42043972 -0.18205482 0.23268265 0.24600221 0.21889395

attention_net.2.weight f4 [1, 128]
00000000: 4d05 983e f387 473e 9c0c 85be 1d72 aa3e
00000010: 8b1a 353e 5d43 b53e 0c99 b53c 777a 263e
00000020: 9fe8 083e f249 80be 49a9 a4be 7d83 843e
00000030: 4389 873e d525 95be 2ebf 753d c1a6 973e
00000040: 499c 98be ca94 4e3e 4c64 cabe 744e ffba
00000050: 4f27 933e c8eb 8ebe 3cad ba3e 6e97 1dba
00000060: 514c a13e 547a 9d3e d7bb 9f3e f5a8 cfbd
00000070: c91c 9cbe 1110 a73e f770 87be 4ef1 b73e
00000080: da9e c4be e6b2 193d b1be 323e 85b5 b8be
00000090: 43e7 ae3e cdd4 873e 3bc9 af3e be19 90be
000000a0: 8a91 9c3e 6fd7 9d3e 3859 143c ded9 aa3e
000000b0: c59c 82be 6a0e abbe 77f1 763e f3b2 68be
000000c0: b07a 25be 4b06 813e 8f19 abbe 9821 af3e
000000d0: 81cf 91b9 60e1 5bbe 9e32 d0be 6f41 3dbe
000000e0: a647 b83e 106c c83d 8c59 833a e52f a23e
000000f0: 95e9 153e a5cc 8f3e 39c4 783e 1942 a4be
00000100: 6ce4 cf3e 52c1 a8be 6004 b1be 478b ad3e
00000110: 32c4 8b3e 74ec a83e 9d0d 733e 602e b93e
00000120: 3151 a63e 821d c13e d9df ad3e 54e3 613e
00000130: 66c9 843e b7c4 2bbc 1a9c a43e a19f 893e
00000140: 86b1 92be 6e13 c33e b4c7 3d3e f66a 173e
00000150: fded 5abe f2d5 163e 71a8 863a c9de a7be
00000160: 9906 8abe 2d67 953e 9033 8abe 1f0f 6b3e
00000170: d508 c93e 125e a4be 4856 753c cd88 9abe
00000180: 3099 4bbe f8b6 b639 2518 91be db59 bdbe
00000190: 8d6e d0bd 9006 bdbe 3852 8ebe b8bc 78be
000001a0: 5685 60be 3ac2 63be 80d4 ac3e 84e4 9bbe
000001b0: c97d b03e 3f4b 7a3e c1fe 1a3e 831e 113e
000001c0: 2e02 bdbe 4061 c0be 49e1 4abe d603 cd3d
000001d0: fd6a 5a3e 503a b93e cade 3fbb 9ec4 263e
000001e0: 67e2 833e 82fc 6d3e 0e29 ea39 87e6 873c
000001f0: 1e9b 97be f3a6 553e 8ec7 7e3e 312c 3b3e
0.29691544 0.19485454 -0.25986183 0.33290187 0.17685907 0.35402957 0.022167705 0.16257654
0.13369988 -0.25056416 -0.32160404 0.25881568 0.2647191 -0.29130426 0.059996776 0.2961941
-0.29806736 0.20173946 -0.39529645 -0.0019478337 0.28740928 -0.27914262 0.36460292 -0.00060116395
0.31503537 0.3075739 0.31197998 -0.10139648 -0.3049071 0.32629445 -0.26453373 0.35926288
-0.38402444 0.037524126 0.17455555 -0.36075988 0.34160814 0.26529542 0.34333214 -0.2814464
0.30579787 0.30828425 0.0090544745 0.33369344 -0.2551023 -0.33409435 0.24115549 -0.22724514
-0.16160083 0.25200114 -0.33417937 0.34205317 -0.00027811158 -0.21472692 -0.40663618 -0.18481992
0.35992163 0.09786236 0.0010021194 0.31677166 0.14639886 0.2808582 0.24293603 -0.32081679
0.4060396 -0.32959992 -0.3457365 0.33895323 0.27298123 0.329929 0.23735662 0.36168194
0.3248382 0.37717825 0.33959845 0.22059375 0.25934905 -0.010483912 0.32150346 0.268796
-0.28651065 0.3810076 0.18533212 0.14786896 -0.21379848 0.14730051 0.0010273588 -0.3278716
-0.2695816 0.2918028 -0.26992464 0.22954987 0.3926455 -0.3210302 0.014974184 -0.30182496
-0.19882655 0.00034850067 -0.28338733 -0.36982617 -0.10177336 -0.3691907 -0.27797103 -0.2429074
-0.21925864 -0.2224206 0.33755875 -0.3044778 0.34470966 0.24442767 0.15136243 0.14171796
-0.36915725 -0.37574196 -0.19812502 0.10010497 0.21329875 0.361773 -0.002927708 0.16285941
0.2575867 0.23240855 0.00044662546 0.016589416 -0.29610533 0.20864467 0.24880812 0.18278576

fc.weight f4 [1, 128]
00000000: 3ef8 5c3b cb24 13bb c1a0 cbbc 235b 8b39
00000010: 9830 07bc 23da 673c 8e6d 63bd b961 243b
00000020: 3cc3 a7bc e3d5 01bd 3d5e 223d 1504 ff3d
00000030: 37ae 803d 5c5a 8b3b 4498 0e3b 9d94 e83c
00000040: 102d d1bc 36be c7bb 609b 683d 1224 0abc
00000050: 11b8 29bb eb2b 9a3d 0a56 e73d 12da e5bb
00000060: 33fb fa3b fd56 af3d 9bc0 2d3c f1a9 203c
00000070: 74b3 10bc 6880 d43a 9a61 bcbb 0e48 133d
00000080: f5f5 d23b cada eabd 13a9 163a 4ebc e33d
00000090: 0058 8e3d ba14 a23d a103 913d 332a 48b9
000000a0: 9dc6 d7bb 251f c4ba e153 273c 474f 3a3b
000000b0: 39e7 3f3c fbb0 b9bb e4e8 4ebc 5e1b 313d
000000c0: b0ad 91bd cab2 c5bd b252 353b e852 babd
000000d0: 6938 f33d 13d9 0dbe 6166 f0bb 82e8 86bc
000000e0: dcc7 cb3b f046 dcbd 1206 013a bb84 15bd
000000f0: 8d6b efbb 2ce9 8d3d 7e03 353b 6035 d8bb
00000100: 3443 193c f1a3 9fbc 880c 5abb 31cc bb3d
00000110: c47a 97bb 2039 ae3c 5e02 22bc 65db f5b9
00000120: 02ac 99ba 9866 003c 87ad aebc 3965 18be
00000130: 7940 4d3d 6049 5a3c ec6c 1d3d 71d8 f73d
00000140: 082e 3abc fd2d 85bd dcce 653d 3310 b03c
00000150: 57ac 1cbd 3351 02be f2df f93d 6c61 ec3a
00000160: e5f5 113b 2152 1fbb 5904 243c eec8 c83a
00000170: 5f71 b23d 9e86 f5bd 84bb adba 544e c0bd
00000180: ab64 08bc b6d4 bdbd 9832 d8bd b7cd bcbc
00000190: 35d4 d03d 8543 44bc f174 c13c 7050 92bd
000001a0: 444f b7bd 6aad 203d 57b1 ec39 d1f0 d63b
000001b0: 24d9 f6b9 42d5 96bc 7445 953b 3d64 0a3d
000001c0: 1a65 893c cb7b 813a 33ff 3e3d 773a 17ba
000001d0: 5860 63b7 ec43 09bc ee91 753b dadc 2abe
000001e0: 9d35 19be c485 a7b8 8f40 5fbc af28 2cbd
000001f0: b8ad 2fbd 9147 4dbd 1401 963b aaff bdbc
0.00337173 -0.002245235 -0.024856927 0.00026580048 -0.008251332 0.014151129 -0.0555244 0.0025082661
-0.020478837 -0.03169812 0.039640654 0.124519505 0.06283229 0.004252715 0.0021758238 0.028391177
-0.025534183 -0.006095673 0.056788802 -0.008431451 -0.0025897066 0.07527908 0.112957075 -0.0070145214
0.00765934 0.085615136 0.010605003 0.009806142 -0.008831847 0.0016212584 -0.0057489397 0.03595739
0.006438012 -0.11467512 0.000574724 0.11119901 0.069503784 0.079141095 0.0708077 -0.00019089207
-0.006584956 -0.0014962895 0.010212869 0.00284286 0.011712843 -0.0056668497 -0.012628768 0.04323899
-0.071132064 -0.09653242 0.0027667698 -0.09097844 0.11875994 -0.13852338 -0.0073364233 -0.01646829
0.0062188935 -0.10755718 0.0004921864 -0.036503535 -0.007306522 0.0692924 0.002762049 -0.0065981597
0.009354401 -0.019487353 -0.003327163 0.09169806 -0.004622789 0.021267474 -0.00988826 -0.00046893503
-0.0011724236 0.00783696 -0.021322979 -0.14882363 0.050110314 0.013323158 0.038433954 0.1210183
-0.011363514 -0.06502912 0.05610548 0.0214921 -0.038250294 -0.12726288 0.12200917 0.0018034405
0.0022271809 -0.0024310427 0.010010802 0.0015318671 0.0871303 -0.11988567 -0.0013254737 -0.0938994
-0.008324782 -0.09269087 -0.10556525 -0.023047311 0.10196725 -0.011978989 0.023615332 -0.071442485
-0.089506656 0.03922788 0.00045145556 0.0065594693 -0.0004708256 -0.018412236 0.0045553986 0.033787
0.016771842 0.0009878812 0.046630096 -0.0005768905 -1.3552686e-05 -0.00837801 0.0037471014 -0.1668581
-0.14961858 -7.988096e-05 -0.013626232 -0.042030986 -0.04289028 -0.05011708 0.0045777652 -0.0231932
